…
    pretrain_model_G: /share/home/104632/jiancong/DAN-unet/experiments/DANv1/DANx4_setting2/models/900000_G.pth
    root: /share/home/104632/jiancong/DAN-unet
    results_root: /share/home/104632/jiancong/DAN-unet/results/DANv1/DANx4_setting2
    log: /share/home/104632/jiancong/DAN-unet/results/DANv1/DANx4_setting2
  ]
  is_train: False

22-11-30 21:36:00.462 - INFO: Dataset [LQGTDataset - DIV2KRK] is created.
22-11-30 21:36:00.463 - INFO: Number of test images in [DIV2KRK]: 100
22-11-30 21:36:04.027 - INFO: Network G structure: DataParallel - DAN, with parameters: 18,113,619
22-11-30 21:36:04.027 - INFO: DAN(
  (Restorer): Restorer(
    (head): Conv2d(3, 64, kernel_size=(3, 3), stride=(1, 1), padding=(1, 1))
    (encoder_block1): Sequential(
      (0): CRB_Layer(
        (norm1): LayerNorm2d()
        (nla): NonLocalSparseAttention(
          (conv_match): BasicBlock(
            (0): Conv2d(64, 16, kernel_size=(3, 3), stride=(1, 1), padding=(1, 1))
          )
          (conv_assembly): BasicBlock(
            (0): Conv2d(64, 64, kernel_size=(1, 1), stride=(1, 1))
          )
        )
        (conv_local): Sequential(
          (0): Conv2d(64, 64, kernel_size=(3, 3), stride=(1, 1), padding=(1, 1), groups=64)
          (1): GELU()
          (2): Conv2d(64, 64, kernel_size=(3, 3), stride=(1, 1), padding=(1, 1), groups=64)
        )
        (conv1_last): Conv2d(128, 64, kernel_size=(1, 1), stride=(1, 1))
        (ca): CALayer(
          (body): Sequential(
            (0): Conv2d(64, 4, kernel_size=(1, 1), stride=(1, 1))
            (1): GELU()
            (2): Conv2d(4, 64, kernel_size=(1, 1), stride=(1, 1))
            (3): Sigmoid()
          )
          (avg): AdaptiveAvgPool2d(output_size=1)
        )
        (norm2): LayerNorm2d()
        (gdfn): FeedForward(
          (project_in): Conv2d(64, 340, kernel_size=(1, 1), stride=(1, 1), bias=False)
          (dwconv): Conv2d(340, 340, kernel_size=(3, 3), stride=(1, 1), padding=(1, 1), groups=340, bias=False)
          (project_out): Conv2d(170, 64, kernel_size=(1, 1), stride=(1, 1), bias=False)
        )
      )
      (1): CRB_Layer(
        (norm1): LayerNorm2d()
        (nla): NonLocalSparseAttention(
          (conv_match): BasicBlock(
            (0): Conv2d(64, 16, kernel_size=(3, 3), stride=(1, 1), padding=(1, 1))
          )
          (conv_assembly): BasicBlock(
            (0): Conv2d(64, 64, kernel_size=(1, 1), stride=(1, 1))
          )
        )
        (conv_local): Sequential(
          (0): Conv2d(64, 64, kernel_size=(3, 3), stride=(1, 1), padding=(1, 1), groups=64)
          (1): GELU()
          (2): Conv2d(64, 64, kernel_size=(3, 3), stride=(1, 1), padding=(1, 1), groups=64)
        )
        (conv1_last): Conv2d(128, 64, kernel_size=(1, 1), stride=(1, 1))
        (ca): CALayer(
          (body): Sequential(
            (0): Conv2d(64, 4, kernel_size=(1, 1), stride=(1, 1))
            (1): GELU()
            (2): Conv2d(4, 64, kernel_size=(1, 1), stride=(1, 1))
            (3): Sigmoid()
          )
          (avg): AdaptiveAvgPool2d(output_size=1)
        )
        (norm2): LayerNorm2d()
        (gdfn): FeedForward(
          (project_in): Conv2d(64, 340, kernel_size=(1, 1), stride=(1, 1), bias=False)
          (dwconv): Conv2d(340, 340, kernel_size=(3, 3), stride=(1, 1), padding=(1, 1), groups=340, bias=False)
          (project_out): Conv2d(170, 64, kernel_size=(1, 1), stride=(1, 1), bias=False)
        )
      )
      (2): CRB_Layer(
        (norm1): LayerNorm2d()
        (nla): NonLocalSparseAttention(
          (conv_match): BasicBlock(
            (0): Conv2d(64, 16, kernel_size=(3, 3), stride=(1, 1), padding=(1, 1))
          )
          (conv_assembly): BasicBlock(
            (0): Conv2d(64, 64, kernel_size=(1, 1), stride=(1, 1))
          )
        )
        (conv_local): Sequential(
          (0): Conv2d(64, 64, kernel_size=(3, 3), stride=(1, 1), padding=(1, 1), groups=64)
          (1): GELU()
          (2): Conv2d(64, 64, kernel_size=(3, 3), stride=(1, 1), padding=(1, 1), groups=64)
        )
        (conv1_last): Conv2d(128, 64, kernel_size=(1, 1), stride=(1, 1))
        (ca): CALayer(
          (body): Sequential(
            (0): Conv2d(64, 4, kernel_size=(1, 1), stride=(1, 1))
            (1): GELU()
            (2): Conv2d(4, 64, kernel_size=(1, 1), stride=(1, 1))
            (3): Sigmoid()
          )
          (avg): AdaptiveAvgPool2d(output_size=1)
        )
        (norm2): LayerNorm2d()
        (gdfn): FeedForward(
          (project_in): Conv2d(64, 340, kernel_size=(1, 1), stride=(1, 1), bias=False)
          (dwconv): Conv2d(340, 340, kernel_size=(3, 3), stride=(1, 1), padding=(1, 1), groups=340, bias=False)
          (project_out): Conv2d(170, 64, kernel_size=(1, 1), stride=(1, 1), bias=False)
        )
      )
      (3): CRB_Layer(
        (norm1): LayerNorm2d()
        (nla): NonLocalSparseAttention(
          (conv_match): BasicBlock(
            (0): Conv2d(64, 16, kernel_size=(3, 3), stride=(1, 1), padding=(1, 1))
          )
          (conv_assembly): BasicBlock(
            (0): Conv2d(64, 64, kernel_size=(1, 1), stride=(1, 1))
          )
        )
        (conv_local): Sequential(
          (0): Conv2d(64, 64, kernel_size=(3, 3), stride=(1, 1), padding=(1, 1), groups=64)
          (1): GELU()
          (2): Conv2d(64, 64, kernel_size=(3, 3), stride=(1, 1), padding=(1, 1), groups=64)
        )
        (conv1_last): Conv2d(128, 64, kernel_size=(1, 1), stride=(1, 1))
        (ca): CALayer(
          (body): Sequential(
            (0): Conv2d(64, 4, kernel_size=(1, 1), stride=(1, 1))
            (1): GELU()
            (2): Conv2d(4, 64, kernel_size=(1, 1), stride=(1, 1))
            (3): Sigmoid()
          )
          (avg): AdaptiveAvgPool2d(output_size=1)
        )
        (norm2): LayerNorm2d()
        (gdfn): FeedForward(
          (project_in): Conv2d(64, 340, kernel_size=(1, 1), stride=(1, 1), bias=False)
          (dwconv): Conv2d(340, 340, kernel_size=(3, 3), stride=(1, 1), padding=(1, 1), groups=340, bias=False)
          (project_out): Conv2d(170, 64, kernel_size=(1, 1), stride=(1, 1), bias=False)
        )
      )
      (4): CRB_Layer(
        (norm1): LayerNorm2d()
        (nla): NonLocalSparseAttention(
          (conv_match): BasicBlock(
            (0): Conv2d(64, 16, kernel_size=(3, 3), stride=(1, 1), padding=(1, 1))
          )
          (conv_assembly): BasicBlock(
            (0): Conv2d(64, 64, kernel_size=(1, 1), stride=(1, 1))
          )
        )
        (conv_local): Sequential(
          (0): Conv2d(64, 64, kernel_size=(3, 3), stride=(1, 1), padding=(1, 1), groups=64)
          (1): GELU()
          (2): Conv2d(64, 64, kernel_size=(3, 3), stride=(1, 1), padding=(1, 1), groups=64)
        )
        (conv1_last): Conv2d(128, 64, kernel_size=(1, 1), stride=(1, 1))
        (ca): CALayer(
          (body): Sequential(
            (0): Conv2d(64, 4, kernel_size=(1, 1), stride=(1, 1))
            (1): GELU()
            (2): Conv2d(4, 64, kernel_size=(1, 1), stride=(1, 1))
            (3): Sigmoid()
          )
          (avg): AdaptiveAvgPool2d(output_size=1)
        )
        (norm2): LayerNorm2d()
        (gdfn): FeedForward(
          (project_in): Conv2d(64, 340, kernel_size=(1, 1), stride=(1, 1), bias=False)
          (dwconv): Conv2d(340, 340, kernel_size=(3, 3), stride=(1, 1), padding=(1, 1), groups=340, bias=False)
          (project_out): Conv2d(170, 64, kernel_size=(1, 1), stride=(1, 1), bias=False)
        )
      )
      (5): CRB_Layer(
        (norm1): LayerNorm2d()
        (nla): NonLocalSparseAttention(
          (conv_match): BasicBlock(
            (0): Conv2d(64, 16, kernel_size=(3, 3), stride=(1, 1), padding=(1, 1))
          )
          (conv_assembly): BasicBlock(
            (0): Conv2d(64, 64, kernel_size=(1, 1), stride=(1, 1))
          )
        )
        (conv_local): Sequential(
          (0): Conv2d(64, 64, kernel_size=(3, 3), stride=(1, 1), padding=(1, 1), groups=64)
          (1): GELU()
          (2): Conv2d(64, 64, kernel_size=(3, 3), stride=(1, 1), padding=(1, 1), groups=64)
        )
        (conv1_last): Conv2d(128, 64, kernel_size=(1, 1), stride=(1, 1))
        (ca): CALayer(
          (body): Sequential(
            (0): Conv2d(64, 4, kernel_size=(1, 1), stride=(1, 1))
            (1): GELU()
            (2): Conv2d(4, 64, kernel_size=(1, 1), stride=(1, 1))
            (3): Sigmoid()
          )
          (avg): AdaptiveAvgPool2d(output_size=1)
        )
        (norm2): LayerNorm2d()
        (gdfn): FeedForward(
          (project_in): Conv2d(64, 340, kernel_size=(1, 1), stride=(1, 1), bias=False)
          (dwconv): Conv2d(340, 340, kernel_size=(3, 3), stride=(1, 1), padding=(1, 1), groups=340, bias=False)
          (project_out): Conv2d(170, 64, kernel_size=(1, 1), stride=(1, 1), bias=False)
        )
      )
    )
    (down1): UnetDownsample(
      (body): Sequential(
        (0): Conv2d(64, 32, kernel_size=(3, 3), stride=(1, 1), padding=(1, 1), bias=False)
        (1): PixelUnshuffle(downscale_factor=2)
      )
    )
    (encoder_block2): Sequential(
      (0): CRB_Layer(
        (norm1): LayerNorm2d()
        (nla): NonLocalSparseAttention(
          (conv_match): BasicBlock(
            (0): Conv2d(128, 32, kernel_size=(3, 3), stride=(1, 1), padding=(1, 1))
          )
          (conv_assembly): BasicBlock(
            (0): Conv2d(128, 128, kernel_size=(1, 1), stride=(1, 1))
          )
        )
        (conv_local): Sequential(
          (0): Conv2d(128, 128, kernel_size=(3, 3), stride=(1, 1), padding=(1, 1), groups=128)
          (1): GELU()
          (2): Conv2d(128, 128, kernel_size=(3, 3), stride=(1, 1), padding=(1, 1), groups=128)
        )
        (conv1_last): Conv2d(256, 128, kernel_size=(1, 1), stride=(1, 1))
        (ca): CALayer(
          (body): Sequential(
            (0): Conv2d(128, 8, kernel_size=(1, 1), stride=(1, 1))
            (1): GELU()
            (2): Conv2d(8, 128, kernel_size=(1, 1), stride=(1, 1))
            (3): Sigmoid()
          )
          (avg): AdaptiveAvgPool2d(output_size=1)
        )
        (norm2): LayerNorm2d()
        (gdfn): FeedForward(
          (project_in): Conv2d(128, 680, kernel_size=(1, 1), stride=(1, 1), bias=False)
          (dwconv): Conv2d(680, 680, kernel_size=(3, 3), stride=(1, 1), padding=(1, 1), groups=680, bias=False)
          (project_out): Conv2d(340, 128, kernel_size=(1, 1), stride=(1, 1), bias=False)
        )
      )
      (1): CRB_Layer(
        (norm1): LayerNorm2d()
        (nla): NonLocalSparseAttention(
          (conv_match): BasicBlock(
            (0): Conv2d(128, 32, kernel_size=(3, 3), stride=(1, 1), padding=(1, 1))
          )
          (conv_assembly): BasicBlock(
            (0): Conv2d(128, 128, kernel_size=(1, 1), stride=(1, 1))
          )
        )
        (conv_local): Sequential(
          (0): Conv2d(128, 128, kernel_size=(3, 3), stride=(1, 1), padding=(1, 1), groups=128)
          (1): GELU()
          (2): Conv2d(128, 128, kernel_size=(3, 3), stride=(1, 1), padding=(1, 1), groups=128)
        )
        (conv1_last): Conv2d(256, 128, kernel_size=(1, 1), stride=(1, 1))
        (ca): CALayer(
          (body): Sequential(
            (0): Conv2d(128, 8, kernel_size=(1, 1), stride=(1, 1))
            (1): GELU()
            (2): Conv2d(8, 128, kernel_size=(1, 1), stride=(1, 1))
            (3): Sigmoid()
          )
          (avg): AdaptiveAvgPool2d(output_size=1)
        )
        (norm2): LayerNorm2d()
        (gdfn): FeedForward(
          (project_in): Conv2d(128, 680, kernel_size=(1, 1), stride=(1, 1), bias=False)
          (dwconv): Conv2d(680, 680, kernel_size=(3, 3), stride=(1, 1), padding=(1, 1), groups=680, bias=False)
          (project_out): Conv2d(340, 128, kernel_size=(1, 1), stride=(1, 1), bias=False)
        )
      )
      (2): CRB_Layer(
        (norm1): LayerNorm2d()
        (nla): NonLocalSparseAttention(
          (conv_match): BasicBlock(
            (0): Conv2d(128, 32, kernel_size=(3, 3), stride=(1, 1), padding=(1, 1))
          )
          (conv_assembly): BasicBlock(
            (0): Conv2d(128, 128, kernel_size=(1, 1), stride=(1, 1))
          )
        )
        (conv_local): Sequential(
          (0): Conv2d(128, 128, kernel_size=(3, 3), stride=(1, 1), padding=(1, 1), groups=128)
          (1): GELU()
          (2): Conv2d(128, 128, kernel_size=(3, 3), stride=(1, 1), padding=(1, 1), groups=128)
        )
        (conv1_last): Conv2d(256, 128, kernel_size=(1, 1), stride=(1, 1))
        (ca): CALayer(
          (body): Sequential(
            (0): Conv2d(128, 8, kernel_size=(1, 1), stride=(1, 1))
            (1): GELU()
            (2): Conv2d(8, 128, kernel_size=(1, 1), stride=(1, 1))
            (3): Sigmoid()
          )
          (avg): AdaptiveAvgPool2d(output_size=1)
        )
        (norm2): LayerNorm2d()
        (gdfn): FeedForward(
          (project_in): Conv2d(128, 680, kernel_size=(1, 1), stride=(1, 1), bias=False)
          (dwconv): Conv2d(680, 680, kernel_size=(3, 3), stride=(1, 1), padding=(1, 1), groups=680, bias=False)
          (project_out): Conv2d(340, 128, kernel_size=(1, 1), stride=(1, 1), bias=False)
        )
      )
      (3): CRB_Layer(
        (norm1): LayerNorm2d()
        (nla): NonLocalSparseAttention(
          (conv_match): BasicBlock(
            (0): Conv2d(128, 32, kernel_size=(3, 3), stride=(1, 1), padding=(1, 1))
          )
          (conv_assembly): BasicBlock(
            (0): Conv2d(128, 128, kernel_size=(1, 1), stride=(1, 1))
          )
        )
        (conv_local): Sequential(
          (0): Conv2d(128, 128, kernel_size=(3, 3), stride=(1, 1), padding=(1, 1), groups=128)
          (1): GELU()
          (2): Conv2d(128, 128, kernel_size=(3, 3), stride=(1, 1), padding=(1, 1), groups=128)
        )
        (conv1_last): Conv2d(256, 128, kernel_size=(1, 1), stride=(1, 1))
        (ca): CALayer(
          (body): Sequential(
            (0): Conv2d(128, 8, kernel_size=(1, 1), stride=(1, 1))
            (1): GELU()
            (2): Conv2d(8, 128, kernel_size=(1, 1), stride=(1, 1))
            (3): Sigmoid()
          )
          (avg): AdaptiveAvgPool2d(output_size=1)
        )
        (norm2): LayerNorm2d()
        (gdfn): FeedForward(
          (project_in): Conv2d(128, 680, kernel_size=(1, 1), stride=(1, 1), bias=False)
          (dwconv): Conv2d(680, 680, kernel_size=(3, 3), stride=(1, 1), padding=(1, 1), groups=680, bias=False)
          (project_out): Conv2d(340, 128, kernel_size=(1, 1), stride=(1, 1), bias=False)
        )
      )
      (4): CRB_Layer(
        (norm1): LayerNorm2d()
        (nla): NonLocalSparseAttention(
          (conv_match): BasicBlock(
            (0): Conv2d(128, 32, kernel_size=(3, 3), stride=(1, 1), padding=(1, 1))
          )
          (conv_assembly): BasicBlock(
            (0): Conv2d(128, 128, kernel_size=(1, 1), stride=(1, 1))
          )
        )
        (conv_local): Sequential(
          (0): Conv2d(128, 128, kernel_size=(3, 3), stride=(1, 1), padding=(1, 1), groups=128)
          (1): GELU()
          (2): Conv2d(128, 128, kernel_size=(3, 3), stride=(1, 1), padding=(1, 1), groups=128)
        )
        (conv1_last): Conv2d(256, 128, kernel_size=(1, 1), stride=(1, 1))
        (ca): CALayer(
          (body): Sequential(
            (0): Conv2d(128, 8, kernel_size=(1, 1), stride=(1, 1))
            (1): GELU()
            (2): Conv2d(8, 128, kernel_size=(1, 1), stride=(1, 1))
            (3): Sigmoid()
          )
          (avg): AdaptiveAvgPool2d(output_size=1)
        )
        (norm2): LayerNorm2d()
        (gdfn): FeedForward(
          (project_in): Conv2d(128, 680, kernel_size=(1, 1), stride=(1, 1), bias=False)
          (dwconv): Conv2d(680, 680, kernel_size=(3, 3), stride=(1, 1), padding=(1, 1), groups=680, bias=False)
          (project_out): Conv2d(340, 128, kernel_size=(1, 1), stride=(1, 1), bias=False)
        )
      )
      (5): CRB_Layer(
        (norm1): LayerNorm2d()
        (nla): NonLocalSparseAttention(
          (conv_match): BasicBlock(
            (0): Conv2d(128, 32, kernel_size=(3, 3), stride=(1, 1), padding=(1, 1))
          )
          (conv_assembly): BasicBlock(
            (0): Conv2d(128, 128, kernel_size=(1, 1), stride=(1, 1))
          )
        )
        (conv_local): Sequential(
          (0): Conv2d(128, 128, kernel_size=(3, 3), stride=(1, 1), padding=(1, 1), groups=128)
          (1): GELU()
          (2): Conv2d(128, 128, kernel_size=(3, 3), stride=(1, 1), padding=(1, 1), groups=128)
        )
        (conv1_last): Conv2d(256, 128, kernel_size=(1, 1), stride=(1, 1))
        (ca): CALayer(
          (body): Sequential(
            (0): Conv2d(128, 8, kernel_size=(1, 1), stride=(1, 1))
            (1): GELU()
            (2): Conv2d(8, 128, kernel_size=(1, 1), stride=(1, 1))
            (3): Sigmoid()
          )
          (avg): AdaptiveAvgPool2d(output_size=1)
        )
        (norm2): LayerNorm2d()
        (gdfn): FeedForward(
          (project_in): Conv2d(128, 680, kernel_size=(1, 1), stride=(1, 1), bias=False)
          (dwconv): Conv2d(680, 680, kernel_size=(3, 3), stride=(1, 1), padding=(1, 1), groups=680, bias=False)
          (project_out): Conv2d(340, 128, kernel_size=(1, 1), stride=(1, 1), bias=False)
        )
      )
      (6): CRB_Layer(
        (norm1): LayerNorm2d()
        (nla): NonLocalSparseAttention(
          (conv_match): BasicBlock(
            (0): Conv2d(128, 32, kernel_size=(3, 3), stride=(1, 1), padding=(1, 1))
          )
          (conv_assembly): BasicBlock(
            (0): Conv2d(128, 128, kernel_size=(1, 1), stride=(1, 1))
          )
        )
        (conv_local): Sequential(
          (0): Conv2d(128, 128, kernel_size=(3, 3), stride=(1, 1), padding=(1, 1), groups=128)
          (1): GELU()
          (2): Conv2d(128, 128, kernel_size=(3, 3), stride=(1, 1), padding=(1, 1), groups=128)
        )
        (conv1_last): Conv2d(256, 128, kernel_size=(1, 1), stride=(1, 1))
        (ca): CALayer(
          (body): Sequential(
            (0): Conv2d(128, 8, kernel_size=(1, 1), stride=(1, 1))
            (1): GELU()
            (2): Conv2d(8, 128, kernel_size=(1, 1), stride=(1, 1))
            (3): Sigmoid()
          )
          (avg): AdaptiveAvgPool2d(output_size=1)
        )
        (norm2): LayerNorm2d()
        (gdfn): FeedForward(
          (project_in): Conv2d(128, 680, kernel_size=(1, 1), stride=(1, 1), bias=False)
          (dwconv): Conv2d(680, 680, kernel_size=(3, 3), stride=(1, 1), padding=(1, 1), groups=680, bias=False)
          (project_out): Conv2d(340, 128, kernel_size=(1, 1), stride=(1, 1), bias=False)
        )
      )
      (7): CRB_Layer(
        (norm1): LayerNorm2d()
        (nla): NonLocalSparseAttention(
          (conv_match): BasicBlock(
            (0): Conv2d(128, 32, kernel_size=(3, 3), stride=(1, 1), padding=(1, 1))
          )
          (conv_assembly): BasicBlock(
            (0): Conv2d(128, 128, kernel_size=(1, 1), stride=(1, 1))
          )
        )
        (conv_local): Sequential(
          (0): Conv2d(128, 128, kernel_size=(3, 3), stride=(1, 1), padding=(1, 1), groups=128)
          (1): GELU()
          (2): Conv2d(128, 128, kernel_size=(3, 3), stride=(1, 1), padding=(1, 1), groups=128)
        )
        (conv1_last): Conv2d(256, 128, kernel_size=(1, 1), stride=(1, 1))
        (ca): CALayer(
          (body): Sequential(
            (0): Conv2d(128, 8, kernel_size=(1, 1), stride=(1, 1))
            (1): GELU()
            (2): Conv2d(8, 128, kernel_size=(1, 1), stride=(1, 1))
            (3): Sigmoid()
          )
          (avg): AdaptiveAvgPool2d(output_size=1)
        )
        (norm2): LayerNorm2d()
        (gdfn): FeedForward(
          (project_in): Conv2d(128, 680, kernel_size=(1, 1), stride=(1, 1), bias=False)
          (dwconv): Conv2d(680, 680, kernel_size=(3, 3), stride=(1, 1), padding=(1, 1), groups=680, bias=False)
          (project_out): Conv2d(340, 128, kernel_size=(1, 1), stride=(1, 1), bias=False)
        )
      )
    )
    (down2): UnetDownsample(
      (body): Sequential(
        (0): Conv2d(128, 64, kernel_size=(3, 3), stride=(1, 1), padding=(1, 1), bias=False)
        (1): PixelUnshuffle(downscale_factor=2)
      )
    )
    (latent_block): Sequential(
      (0): CRB_Layer(
        (norm1): LayerNorm2d()
        (nla): NonLocalSparseAttention(
          (conv_match): BasicBlock(
            (0): Conv2d(256, 64, kernel_size=(3, 3), stride=(1, 1), padding=(1, 1))
          )
          (conv_assembly): BasicBlock(
            (0): Conv2d(256, 256, kernel_size=(1, 1), stride=(1, 1))
          )
        )
        (conv_local): Sequential(
          (0): Conv2d(256, 256, kernel_size=(3, 3), stride=(1, 1), padding=(1, 1), groups=256)
          (1): GELU()
          (2): Conv2d(256, 256, kernel_size=(3, 3), stride=(1, 1), padding=(1, 1), groups=256)
        )
        (conv1_last): Conv2d(512, 256, kernel_size=(1, 1), stride=(1, 1))
        (ca): CALayer(
          (body): Sequential(
            (0): Conv2d(256, 16, kernel_size=(1, 1), stride=(1, 1))
            (1): GELU()
            (2): Conv2d(16, 256, kernel_size=(1, 1), stride=(1, 1))
            (3): Sigmoid()
          )
          (avg): AdaptiveAvgPool2d(output_size=1)
        )
        (norm2): LayerNorm2d()
        (gdfn): FeedForward(
          (project_in): Conv2d(256, 1360, kernel_size=(1, 1), stride=(1, 1), bias=False)
          (dwconv): Conv2d(1360, 1360, kernel_size=(3, 3), stride=(1, 1), padding=(1, 1), groups=1360, bias=False)
          (project_out): Conv2d(680, 256, kernel_size=(1, 1), stride=(1, 1), bias=False)
        )
      )
      (1): CRB_Layer(
        (norm1): LayerNorm2d()
        (nla): NonLocalSparseAttention(
          (conv_match): BasicBlock(
            (0): Conv2d(256, 64, kernel_size=(3, 3), stride=(1, 1), padding=(1, 1))
          )
          (conv_assembly): BasicBlock(
            (0): Conv2d(256, 256, kernel_size=(1, 1), stride=(1, 1))
          )
        )
        (conv_local): Sequential(
          (0): Conv2d(256, 256, kernel_size=(3, 3), stride=(1, 1), padding=(1, 1), groups=256)
          (1): GELU()
          (2): Conv2d(256, 256, kernel_size=(3, 3), stride=(1, 1), padding=(1, 1), groups=256)
        )
        (conv1_last): Conv2d(512, 256, kernel_size=(1, 1), stride=(1, 1))
        (ca): CALayer(
          (body): Sequential(
            (0): Conv2d(256, 16, kernel_size=(1, 1), stride=(1, 1))
            (1): GELU()
            (2): Conv2d(16, 256, kernel_size=(1, 1), stride=(1, 1))
            (3): Sigmoid()
          )
          (avg): AdaptiveAvgPool2d(output_size=1)
        )
        (norm2): LayerNorm2d()
        (gdfn): FeedForward(
          (project_in): Conv2d(256, 1360, kernel_size=(1, 1), stride=(1, 1), bias=False)
          (dwconv): Conv2d(1360, 1360, kernel_size=(3, 3), stride=(1, 1), padding=(1, 1), groups=1360, bias=False)
          (project_out): Conv2d(680, 256, kernel_size=(1, 1), stride=(1, 1), bias=False)
        )
      )
      (2): CRB_Layer(
        (norm1): LayerNorm2d()
        (nla): NonLocalSparseAttention(
          (conv_match): BasicBlock(
            (0): Conv2d(256, 64, kernel_size=(3, 3), stride=(1, 1), padding=(1, 1))
          )
          (conv_assembly): BasicBlock(
            (0): Conv2d(256, 256, kernel_size=(1, 1), stride=(1, 1))
          )
        )
        (conv_local): Sequential(
          (0): Conv2d(256, 256, kernel_size=(3, 3), stride=(1, 1), padding=(1, 1), groups=256)
          (1): GELU()
          (2): Conv2d(256, 256, kernel_size=(3, 3), stride=(1, 1), padding=(1, 1), groups=256)
        )
        (conv1_last): Conv2d(512, 256, kernel_size=(1, 1), stride=(1, 1))
        (ca): CALayer(
          (body): Sequential(
            (0): Conv2d(256, 16, kernel_size=(1, 1), stride=(1, 1))
            (1): GELU()
            (2): Conv2d(16, 256, kernel_size=(1, 1), stride=(1, 1))
            (3): Sigmoid()
          )
          (avg): AdaptiveAvgPool2d(output_size=1)
        )
        (norm2): LayerNorm2d()
        (gdfn): FeedForward(
          (project_in): Conv2d(256, 1360, kernel_size=(1, 1), stride=(1, 1), bias=False)
          (dwconv): Conv2d(1360, 1360, kernel_size=(3, 3), stride=(1, 1), padding=(1, 1), groups=1360, bias=False)
          (project_out): Conv2d(680, 256, kernel_size=(1, 1), stride=(1, 1), bias=False)
        )
      )
      (3): CRB_Layer(
        (norm1): LayerNorm2d()
        (nla): NonLocalSparseAttention(
          (conv_match): BasicBlock(
            (0): Conv2d(256, 64, kernel_size=(3, 3), stride=(1, 1), padding=(1, 1))
          )
          (conv_assembly): BasicBlock(
            (0): Conv2d(256, 256, kernel_size=(1, 1), stride=(1, 1))
          )
        )
        (conv_local): Sequential(
          (0): Conv2d(256, 256, kernel_size=(3, 3), stride=(1, 1), padding=(1, 1), groups=256)
          (1): GELU()
          (2): Conv2d(256, 256, kernel_size=(3, 3), stride=(1, 1), padding=(1, 1), groups=256)
        )
        (conv1_last): Conv2d(512, 256, kernel_size=(1, 1), stride=(1, 1))
        (ca): CALayer(
          (body): Sequential(
            (0): Conv2d(256, 16, kernel_size=(1, 1), stride=(1, 1))
            (1): GELU()
            (2): Conv2d(16, 256, kernel_size=(1, 1), stride=(1, 1))
            (3): Sigmoid()
          )
          (avg): AdaptiveAvgPool2d(output_size=1)
        )
        (norm2): LayerNorm2d()
        (gdfn): FeedForward(
          (project_in): Conv2d(256, 1360, kernel_size=(1, 1), stride=(1, 1), bias=False)
          (dwconv): Conv2d(1360, 1360, kernel_size=(3, 3), stride=(1, 1), padding=(1, 1), groups=1360, bias=False)
          (project_out): Conv2d(680, 256, kernel_size=(1, 1), stride=(1, 1), bias=False)
        )
      )
      (4): CRB_Layer(
        (norm1): LayerNorm2d()
        (nla): NonLocalSparseAttention(
          (conv_match): BasicBlock(
            (0): Conv2d(256, 64, kernel_size=(3, 3), stride=(1, 1), padding=(1, 1))
          )
          (conv_assembly): BasicBlock(
            (0): Conv2d(256, 256, kernel_size=(1, 1), stride=(1, 1))
          )
        )
        (conv_local): Sequential(
          (0): Conv2d(256, 256, kernel_size=(3, 3), stride=(1, 1), padding=(1, 1), groups=256)
          (1): GELU()
          (2): Conv2d(256, 256, kernel_size=(3, 3), stride=(1, 1), padding=(1, 1), groups=256)
        )
        (conv1_last): Conv2d(512, 256, kernel_size=(1, 1), stride=(1, 1))
        (ca): CALayer(
          (body): Sequential(
            (0): Conv2d(256, 16, kernel_size=(1, 1), stride=(1, 1))
            (1): GELU()
            (2): Conv2d(16, 256, kernel_size=(1, 1), stride=(1, 1))
            (3): Sigmoid()
          )
          (avg): AdaptiveAvgPool2d(output_size=1)
        )
        (norm2): LayerNorm2d()
        (gdfn): FeedForward(
          (project_in): Conv2d(256, 1360, kernel_size=(1, 1), stride=(1, 1), bias=False)
          (dwconv): Conv2d(1360, 1360, kernel_size=(3, 3), stride=(1, 1), padding=(1, 1), groups=1360, bias=False)
          (project_out): Conv2d(680, 256, kernel_size=(1, 1), stride=(1, 1), bias=False)
        )
      )
      (5): CRB_Layer(
        (norm1): LayerNorm2d()
        (nla): NonLocalSparseAttention(
          (conv_match): BasicBlock(
            (0): Conv2d(256, 64, kernel_size=(3, 3), stride=(1, 1), padding=(1, 1))
          )
          (conv_assembly): BasicBlock(
            (0): Conv2d(256, 256, kernel_size=(1, 1), stride=(1, 1))
          )
        )
        (conv_local): Sequential(
          (0): Conv2d(256, 256, kernel_size=(3, 3), stride=(1, 1), padding=(1, 1), groups=256)
          (1): GELU()
          (2): Conv2d(256, 256, kernel_size=(3, 3), stride=(1, 1), padding=(1, 1), groups=256)
        )
        (conv1_last): Conv2d(512, 256, kernel_size=(1, 1), stride=(1, 1))
        (ca): CALayer(
          (body): Sequential(
            (0): Conv2d(256, 16, kernel_size=(1, 1), stride=(1, 1))
            (1): GELU()
            (2): Conv2d(16, 256, kernel_size=(1, 1), stride=(1, 1))
            (3): Sigmoid()
          )
          (avg): AdaptiveAvgPool2d(output_size=1)
        )
        (norm2): LayerNorm2d()
        (gdfn): FeedForward(
          (project_in): Conv2d(256, 1360, kernel_size=(1, 1), stride=(1, 1), bias=False)
          (dwconv): Conv2d(1360, 1360, kernel_size=(3, 3), stride=(1, 1), padding=(1, 1), groups=1360, bias=False)
          (project_out): Conv2d(680, 256, kernel_size=(1, 1), stride=(1, 1), bias=False)
        )
      )
      (6): CRB_Layer(
        (norm1): LayerNorm2d()
        (nla): NonLocalSparseAttention(
          (conv_match): BasicBlock(
            (0): Conv2d(256, 64, kernel_size=(3, 3), stride=(1, 1), padding=(1, 1))
          )
          (conv_assembly): BasicBlock(
            (0): Conv2d(256, 256, kernel_size=(1, 1), stride=(1, 1))
          )
        )
        (conv_local): Sequential(
          (0): Conv2d(256, 256, kernel_size=(3, 3), stride=(1, 1), padding=(1, 1), groups=256)
          (1): GELU()
          (2): Conv2d(256, 256, kernel_size=(3, 3), stride=(1, 1), padding=(1, 1), groups=256)
        )
        (conv1_last): Conv2d(512, 256, kernel_size=(1, 1), stride=(1, 1))
        (ca): CALayer(
          (body): Sequential(
            (0): Conv2d(256, 16, kernel_size=(1, 1), stride=(1, 1))
            (1): GELU()
            (2): Conv2d(16, 256, kernel_size=(1, 1), stride=(1, 1))
            (3): Sigmoid()
          )
          (avg): AdaptiveAvgPool2d(output_size=1)
        )
        (norm2): LayerNorm2d()
        (gdfn): FeedForward(
          (project_in): Conv2d(256, 1360, kernel_size=(1, 1), stride=(1, 1), bias=False)
          (dwconv): Conv2d(1360, 1360, kernel_size=(3, 3), stride=(1, 1), padding=(1, 1), groups=1360, bias=False)
          (project_out): Conv2d(680, 256, kernel_size=(1, 1), stride=(1, 1), bias=False)
        )
      )
      (7): CRB_Layer(
        (norm1): LayerNorm2d()
        (nla): NonLocalSparseAttention(
          (conv_match): BasicBlock(
            (0): Conv2d(256, 64, kernel_size=(3, 3), stride=(1, 1), padding=(1, 1))
          )
          (conv_assembly): BasicBlock(
            (0): Conv2d(256, 256, kernel_size=(1, 1), stride=(1, 1))
          )
        )
        (conv_local): Sequential(
          (0): Conv2d(256, 256, kernel_size=(3, 3), stride=(1, 1), padding=(1, 1), groups=256)
          (1): GELU()
          (2): Conv2d(256, 256, kernel_size=(3, 3), stride=(1, 1), padding=(1, 1), groups=256)
        )
        (conv1_last): Conv2d(512, 256, kernel_size=(1, 1), stride=(1, 1))
        (ca): CALayer(
          (body): Sequential(
            (0): Conv2d(256, 16, kernel_size=(1, 1), stride=(1, 1))
            (1): GELU()
            (2): Conv2d(16, 256, kernel_size=(1, 1), stride=(1, 1))
            (3): Sigmoid()
          )
          (avg): AdaptiveAvgPool2d(output_size=1)
        )
        (norm2): LayerNorm2d()
        (gdfn): FeedForward(
          (project_in): Conv2d(256, 1360, kernel_size=(1, 1), stride=(1, 1), bias=False)
          (dwconv): Conv2d(1360, 1360, kernel_size=(3, 3), stride=(1, 1), padding=(1, 1), groups=1360, bias=False)
          (project_out): Conv2d(680, 256, kernel_size=(1, 1), stride=(1, 1), bias=False)
        )
      )
      (8): CRB_Layer(
        (norm1): LayerNorm2d()
        (nla): NonLocalSparseAttention(
          (conv_match): BasicBlock(
            (0): Conv2d(256, 64, kernel_size=(3, 3), stride=(1, 1), padding=(1, 1))
          )
          (conv_assembly): BasicBlock(
            (0): Conv2d(256, 256, kernel_size=(1, 1), stride=(1, 1))
          )
        )
        (conv_local): Sequential(
          (0): Conv2d(256, 256, kernel_size=(3, 3), stride=(1, 1), padding=(1, 1), groups=256)
          (1): GELU()
          (2): Conv2d(256, 256, kernel_size=(3, 3), stride=(1, 1), padding=(1, 1), groups=256)
        )
        (conv1_last): Conv2d(512, 256, kernel_size=(1, 1), stride=(1, 1))
        (ca): CALayer(
          (body): Sequential(
            (0): Conv2d(256, 16, kernel_size=(1, 1), stride=(1, 1))
            (1): GELU()
            (2): Conv2d(16, 256, kernel_size=(1, 1), stride=(1, 1))
            (3): Sigmoid()
          )
          (avg): AdaptiveAvgPool2d(output_size=1)
        )
        (norm2): LayerNorm2d()
        (gdfn): FeedForward(
          (project_in): Conv2d(256, 1360, kernel_size=(1, 1), stride=(1, 1), bias=False)
          (dwconv): Conv2d(1360, 1360, kernel_size=(3, 3), stride=(1, 1), padding=(1, 1), groups=1360, bias=False)
          (project_out): Conv2d(680, 256, kernel_size=(1, 1), stride=(1, 1), bias=False)
        )
      )
      (9): CRB_Layer(
        (norm1): LayerNorm2d()
        (nla): NonLocalSparseAttention(
          (conv_match): BasicBlock(
            (0): Conv2d(256, 64, kernel_size=(3, 3), stride=(1, 1), padding=(1, 1))
          )
          (conv_assembly): BasicBlock(
            (0): Conv2d(256, 256, kernel_size=(1, 1), stride=(1, 1))
          )
        )
        (conv_local): Sequential(
          (0): Conv2d(256, 256, kernel_size=(3, 3), stride=(1, 1), padding=(1, 1), groups=256)
          (1): GELU()
          (2): Conv2d(256, 256, kernel_size=(3, 3), stride=(1, 1), padding=(1, 1), groups=256)
        )
        (conv1_last): Conv2d(512, 256, kernel_size=(1, 1), stride=(1, 1))
        (ca): CALayer(
          (body): Sequential(
            (0): Conv2d(256, 16, kernel_size=(1, 1), stride=(1, 1))
            (1): GELU()
            (2): Conv2d(16, 256, kernel_size=(1, 1), stride=(1, 1))
            (3): Sigmoid()
          )
          (avg): AdaptiveAvgPool2d(output_size=1)
        )
        (norm2): LayerNorm2d()
        (gdfn): FeedForward(
          (project_in): Conv2d(256, 1360, kernel_size=(1, 1), stride=(1, 1), bias=False)
          (dwconv): Conv2d(1360, 1360, kernel_size=(3, 3), stride=(1, 1), padding=(1, 1), groups=1360, bias=False)
          (project_out): Conv2d(680, 256, kernel_size=(1, 1), stride=(1, 1), bias=False)
        )
      )
    )
    (up1): UnetUpsample(
      (body): Sequential(
        (0): Conv2d(256, 512, kernel_size=(3, 3), stride=(1, 1), padding=(1, 1), bias=False)
        (1): PixelShuffle(upscale_factor=2)
      )
    )
    (conv1x1_1): Conv2d(256, 128, kernel_size=(1, 1), stride=(1, 1))
    (decoder_block1): Sequential(
      (0): CRB_Layer(
        (norm1): LayerNorm2d()
        (nla): NonLocalSparseAttention(
          (conv_match): BasicBlock(
            (0): Conv2d(128, 32, kernel_size=(3, 3), stride=(1, 1), padding=(1, 1))
          )
          (conv_assembly): BasicBlock(
            (0): Conv2d(128, 128, kernel_size=(1, 1), stride=(1, 1))
          )
        )
        (conv_local): Sequential(
          (0): Conv2d(128, 128, kernel_size=(3, 3), stride=(1, 1), padding=(1, 1), groups=128)
          (1): GELU()
          (2): Conv2d(128, 128, kernel_size=(3, 3), stride=(1, 1), padding=(1, 1), groups=128)
        )
        (conv1_last): Conv2d(256, 128, kernel_size=(1, 1), stride=(1, 1))
        (ca): CALayer(
          (body): Sequential(
            (0): Conv2d(128, 8, kernel_size=(1, 1), stride=(1, 1))
            (1): GELU()
            (2): Conv2d(8, 128, kernel_size=(1, 1), stride=(1, 1))
            (3): Sigmoid()
          )
          (avg): AdaptiveAvgPool2d(output_size=1)
        )
        (norm2): LayerNorm2d()
        (gdfn): FeedForward(
          (project_in): Conv2d(128, 680, kernel_size=(1, 1), stride=(1, 1), bias=False)
          (dwconv): Conv2d(680, 680, kernel_size=(3, 3), stride=(1, 1), padding=(1, 1), groups=680, bias=False)
          (project_out): Conv2d(340, 128, kernel_size=(1, 1), stride=(1, 1), bias=False)
        )
      )
      (1): CRB_Layer(
        (norm1): LayerNorm2d()
        (nla): NonLocalSparseAttention(
          (conv_match): BasicBlock(
            (0): Conv2d(128, 32, kernel_size=(3, 3), stride=(1, 1), padding=(1, 1))
          )
          (conv_assembly): BasicBlock(
            (0): Conv2d(128, 128, kernel_size=(1, 1), stride=(1, 1))
          )
        )
        (conv_local): Sequential(
          (0): Conv2d(128, 128, kernel_size=(3, 3), stride=(1, 1), padding=(1, 1), groups=128)
          (1): GELU()
          (2): Conv2d(128, 128, kernel_size=(3, 3), stride=(1, 1), padding=(1, 1), groups=128)
        )
        (conv1_last): Conv2d(256, 128, kernel_size=(1, 1), stride=(1, 1))
        (ca): CALayer(
          (body): Sequential(
            (0): Conv2d(128, 8, kernel_size=(1, 1), stride=(1, 1))
            (1): GELU()
            (2): Conv2d(8, 128, kernel_size=(1, 1), stride=(1, 1))
            (3): Sigmoid()
          )
          (avg): AdaptiveAvgPool2d(output_size=1)
        )
        (norm2): LayerNorm2d()
        (gdfn): FeedForward(
          (project_in): Conv2d(128, 680, kernel_size=(1, 1), stride=(1, 1), bias=False)
          (dwconv): Conv2d(680, 680, kernel_size=(3, 3), stride=(1, 1), padding=(1, 1), groups=680, bias=False)
          (project_out): Conv2d(340, 128, kernel_size=(1, 1), stride=(1, 1), bias=False)
        )
      )
      (2): CRB_Layer(
        (norm1): LayerNorm2d()
        (nla): NonLocalSparseAttention(
          (conv_match): BasicBlock(
            (0): Conv2d(128, 32, kernel_size=(3, 3), stride=(1, 1), padding=(1, 1))
          )
          (conv_assembly): BasicBlock(
            (0): Conv2d(128, 128, kernel_size=(1, 1), stride=(1, 1))
          )
        )
        (conv_local): Sequential(
          (0): Conv2d(128, 128, kernel_size=(3, 3), stride=(1, 1), padding=(1, 1), groups=128)
          (1): GELU()
          (2): Conv2d(128, 128, kernel_size=(3, 3), stride=(1, 1), padding=(1, 1), groups=128)
        )
        (conv1_last): Conv2d(256, 128, kernel_size=(1, 1), stride=(1, 1))
        (ca): CALayer(
          (body): Sequential(
            (0): Conv2d(128, 8, kernel_size=(1, 1), stride=(1, 1))
            (1): GELU()
            (2): Conv2d(8, 128, kernel_size=(1, 1), stride=(1, 1))
            (3): Sigmoid()
          )
          (avg): AdaptiveAvgPool2d(output_size=1)
        )
        (norm2): LayerNorm2d()
        (gdfn): FeedForward(
          (project_in): Conv2d(128, 680, kernel_size=(1, 1), stride=(1, 1), bias=False)
          (dwconv): Conv2d(680, 680, kernel_size=(3, 3), stride=(1, 1), padding=(1, 1), groups=680, bias=False)
          (project_out): Conv2d(340, 128, kernel_size=(1, 1), stride=(1, 1), bias=False)
        )
      )
      (3): CRB_Layer(
        (norm1): LayerNorm2d()
        (nla): NonLocalSparseAttention(
          (conv_match): BasicBlock(
            (0): Conv2d(128, 32, kernel_size=(3, 3), stride=(1, 1), padding=(1, 1))
          )
          (conv_assembly): BasicBlock(
            (0): Conv2d(128, 128, kernel_size=(1, 1), stride=(1, 1))
          )
        )
        (conv_local): Sequential(
          (0): Conv2d(128, 128, kernel_size=(3, 3), stride=(1, 1), padding=(1, 1), groups=128)
          (1): GELU()
          (2): Conv2d(128, 128, kernel_size=(3, 3), stride=(1, 1), padding=(1, 1), groups=128)
        )
        (conv1_last): Conv2d(256, 128, kernel_size=(1, 1), stride=(1, 1))
        (ca): CALayer(
          (body): Sequential(
            (0): Conv2d(128, 8, kernel_size=(1, 1), stride=(1, 1))
            (1): GELU()
            (2): Conv2d(8, 128, kernel_size=(1, 1), stride=(1, 1))
            (3): Sigmoid()
          )
          (avg): AdaptiveAvgPool2d(output_size=1)
        )
        (norm2): LayerNorm2d()
        (gdfn): FeedForward(
          (project_in): Conv2d(128, 680, kernel_size=(1, 1), stride=(1, 1), bias=False)
          (dwconv): Conv2d(680, 680, kernel_size=(3, 3), stride=(1, 1), padding=(1, 1), groups=680, bias=False)
          (project_out): Conv2d(340, 128, kernel_size=(1, 1), stride=(1, 1), bias=False)
        )
      )
      (4): CRB_Layer(
        (norm1): LayerNorm2d()
        (nla): NonLocalSparseAttention(
          (conv_match): BasicBlock(
            (0): Conv2d(128, 32, kernel_size=(3, 3), stride=(1, 1), padding=(1, 1))
          )
          (conv_assembly): BasicBlock(
            (0): Conv2d(128, 128, kernel_size=(1, 1), stride=(1, 1))
          )
        )
        (conv_local): Sequential(
          (0): Conv2d(128, 128, kernel_size=(3, 3), stride=(1, 1), padding=(1, 1), groups=128)
          (1): GELU()
          (2): Conv2d(128, 128, kernel_size=(3, 3), stride=(1, 1), padding=(1, 1), groups=128)
        )
        (conv1_last): Conv2d(256, 128, kernel_size=(1, 1), stride=(1, 1))
        (ca): CALayer(
          (body): Sequential(
            (0): Conv2d(128, 8, kernel_size=(1, 1), stride=(1, 1))
            (1): GELU()
            (2): Conv2d(8, 128, kernel_size=(1, 1), stride=(1, 1))
            (3): Sigmoid()
          )
          (avg): AdaptiveAvgPool2d(output_size=1)
        )
        (norm2): LayerNorm2d()
        (gdfn): FeedForward(
          (project_in): Conv2d(128, 680, kernel_size=(1, 1), stride=(1, 1), bias=False)
          (dwconv): Conv2d(680, 680, kernel_size=(3, 3), stride=(1, 1), padding=(1, 1), groups=680, bias=False)
          (project_out): Conv2d(340, 128, kernel_size=(1, 1), stride=(1, 1), bias=False)
        )
      )
      (5): CRB_Layer(
        (norm1): LayerNorm2d()
        (nla): NonLocalSparseAttention(
          (conv_match): BasicBlock(
            (0): Conv2d(128, 32, kernel_size=(3, 3), stride=(1, 1), padding=(1, 1))
          )
          (conv_assembly): BasicBlock(
            (0): Conv2d(128, 128, kernel_size=(1, 1), stride=(1, 1))
          )
        )
        (conv_local): Sequential(
          (0): Conv2d(128, 128, kernel_size=(3, 3), stride=(1, 1), padding=(1, 1), groups=128)
          (1): GELU()
          (2): Conv2d(128, 128, kernel_size=(3, 3), stride=(1, 1), padding=(1, 1), groups=128)
        )
        (conv1_last): Conv2d(256, 128, kernel_size=(1, 1), stride=(1, 1))
        (ca): CALayer(
          (body): Sequential(
            (0): Conv2d(128, 8, kernel_size=(1, 1), stride=(1, 1))
            (1): GELU()
            (2): Conv2d(8, 128, kernel_size=(1, 1), stride=(1, 1))
            (3): Sigmoid()
          )
          (avg): AdaptiveAvgPool2d(output_size=1)
        )
        (norm2): LayerNorm2d()
        (gdfn): FeedForward(
          (project_in): Conv2d(128, 680, kernel_size=(1, 1), stride=(1, 1), bias=False)
          (dwconv): Conv2d(680, 680, kernel_size=(3, 3), stride=(1, 1), padding=(1, 1), groups=680, bias=False)
          (project_out): Conv2d(340, 128, kernel_size=(1, 1), stride=(1, 1), bias=False)
        )
      )
    )
    (up2): UnetUpsample(
      (body): Sequential(
        (0): Conv2d(128, 256, kernel_size=(3, 3), stride=(1, 1), padding=(1, 1), bias=False)
        (1): PixelShuffle(upscale_factor=2)
      )
    )
    (decoder_block2): Sequential(
      (0): CRB_Layer(
        (norm1): LayerNorm2d()
        (nla): NonLocalSparseAttention(
          (conv_match): BasicBlock(
            (0): Conv2d(128, 32, kernel_size=(3, 3), stride=(1, 1), padding=(1, 1))
          )
          (conv_assembly): BasicBlock(
            (0): Conv2d(128, 128, kernel_size=(1, 1), stride=(1, 1))
          )
        )
        (conv_local): Sequential(
          (0): Conv2d(128, 128, kernel_size=(3, 3), stride=(1, 1), padding=(1, 1), groups=128)
          (1): GELU()
          (2): Conv2d(128, 128, kernel_size=(3, 3), stride=(1, 1), padding=(1, 1), groups=128)
        )
        (conv1_last): Conv2d(256, 128, kernel_size=(1, 1), stride=(1, 1))
        (ca): CALayer(
          (body): Sequential(
            (0): Conv2d(128, 8, kernel_size=(1, 1), stride=(1, 1))
            (1): GELU()
            (2): Conv2d(8, 128, kernel_size=(1, 1), stride=(1, 1))
            (3): Sigmoid()
          )
          (avg): AdaptiveAvgPool2d(output_size=1)
        )
        (norm2): LayerNorm2d()
        (gdfn): FeedForward(
          (project_in): Conv2d(128, 680, kernel_size=(1, 1), stride=(1, 1), bias=False)
          (dwconv): Conv2d(680, 680, kernel_size=(3, 3), stride=(1, 1), padding=(1, 1), groups=680, bias=False)
          (project_out): Conv2d(340, 128, kernel_size=(1, 1), stride=(1, 1), bias=False)
        )
      )
      (1): CRB_Layer(
        (norm1): LayerNorm2d()
        (nla): NonLocalSparseAttention(
          (conv_match): BasicBlock(
            (0): Conv2d(128, 32, kernel_size=(3, 3), stride=(1, 1), padding=(1, 1))
          )
          (conv_assembly): BasicBlock(
            (0): Conv2d(128, 128, kernel_size=(1, 1), stride=(1, 1))
          )
        )
        (conv_local): Sequential(
          (0): Conv2d(128, 128, kernel_size=(3, 3), stride=(1, 1), padding=(1, 1), groups=128)
          (1): GELU()
          (2): Conv2d(128, 128, kernel_size=(3, 3), stride=(1, 1), padding=(1, 1), groups=128)
        )
        (conv1_last): Conv2d(256, 128, kernel_size=(1, 1), stride=(1, 1))
        (ca): CALayer(
          (body): Sequential(
            (0): Conv2d(128, 8, kernel_size=(1, 1), stride=(1, 1))
            (1): GELU()
            (2): Conv2d(8, 128, kernel_size=(1, 1), stride=(1, 1))
            (3): Sigmoid()
          )
          (avg): AdaptiveAvgPool2d(output_size=1)
        )
        (norm2): LayerNorm2d()
        (gdfn): FeedForward(
          (project_in): Conv2d(128, 680, kernel_size=(1, 1), stride=(1, 1), bias=False)
          (dwconv): Conv2d(680, 680, kernel_size=(3, 3), stride=(1, 1), padding=(1, 1), groups=680, bias=False)
          (project_out): Conv2d(340, 128, kernel_size=(1, 1), stride=(1, 1), bias=False)
        )
      )
      (2): CRB_Layer(
        (norm1): LayerNorm2d()
        (nla): NonLocalSparseAttention(
          (conv_match): BasicBlock(
            (0): Conv2d(128, 32, kernel_size=(3, 3), stride=(1, 1), padding=(1, 1))
          )
          (conv_assembly): BasicBlock(
            (0): Conv2d(128, 128, kernel_size=(1, 1), stride=(1, 1))
          )
        )
        (conv_local): Sequential(
          (0): Conv2d(128, 128, kernel_size=(3, 3), stride=(1, 1), padding=(1, 1), groups=128)
          (1): GELU()
          (2): Conv2d(128, 128, kernel_size=(3, 3), stride=(1, 1), padding=(1, 1), groups=128)
        )
        (conv1_last): Conv2d(256, 128, kernel_size=(1, 1), stride=(1, 1))
        (ca): CALayer(
          (body): Sequential(
            (0): Conv2d(128, 8, kernel_size=(1, 1), stride=(1, 1))
            (1): GELU()
            (2): Conv2d(8, 128, kernel_size=(1, 1), stride=(1, 1))
            (3): Sigmoid()
          )
          (avg): AdaptiveAvgPool2d(output_size=1)
        )
        (norm2): LayerNorm2d()
        (gdfn): FeedForward(
          (project_in): Conv2d(128, 680, kernel_size=(1, 1), stride=(1, 1), bias=False)
          (dwconv): Conv2d(680, 680, kernel_size=(3, 3), stride=(1, 1), padding=(1, 1), groups=680, bias=False)
          (project_out): Conv2d(340, 128, kernel_size=(1, 1), stride=(1, 1), bias=False)
        )
      )
      (3): CRB_Layer(
        (norm1): LayerNorm2d()
        (nla): NonLocalSparseAttention(
          (conv_match): BasicBlock(
            (0): Conv2d(128, 32, kernel_size=(3, 3), stride=(1, 1), padding=(1, 1))
          )
          (conv_assembly): BasicBlock(
            (0): Conv2d(128, 128, kernel_size=(1, 1), stride=(1, 1))
          )
        )
        (conv_local): Sequential(
          (0): Conv2d(128, 128, kernel_size=(3, 3), stride=(1, 1), padding=(1, 1), groups=128)
          (1): GELU()
          (2): Conv2d(128, 128, kernel_size=(3, 3), stride=(1, 1), padding=(1, 1), groups=128)
        )
        (conv1_last): Conv2d(256, 128, kernel_size=(1, 1), stride=(1, 1))
        (ca): CALayer(
          (body): Sequential(
            (0): Conv2d(128, 8, kernel_size=(1, 1), stride=(1, 1))
            (1): GELU()
            (2): Conv2d(8, 128, kernel_size=(1, 1), stride=(1, 1))
            (3): Sigmoid()
          )
          (avg): AdaptiveAvgPool2d(output_size=1)
        )
        (norm2): LayerNorm2d()
        (gdfn): FeedForward(
          (project_in): Conv2d(128, 680, kernel_size=(1, 1), stride=(1, 1), bias=False)
          (dwconv): Conv2d(680, 680, kernel_size=(3, 3), stride=(1, 1), padding=(1, 1), groups=680, bias=False)
          (project_out): Conv2d(340, 128, kernel_size=(1, 1), stride=(1, 1), bias=False)
        )
      )
      (4): CRB_Layer(
        (norm1): LayerNorm2d()
        (nla): NonLocalSparseAttention(
          (conv_match): BasicBlock(
            (0): Conv2d(128, 32, kernel_size=(3, 3), stride=(1, 1), padding=(1, 1))
          )
          (conv_assembly): BasicBlock(
            (0): Conv2d(128, 128, kernel_size=(1, 1), stride=(1, 1))
          )
        )
        (conv_local): Sequential(
          (0): Conv2d(128, 128, kernel_size=(3, 3), stride=(1, 1), padding=(1, 1), groups=128)
          (1): GELU()
          (2): Conv2d(128, 128, kernel_size=(3, 3), stride=(1, 1), padding=(1, 1), groups=128)
        )
        (conv1_last): Conv2d(256, 128, kernel_size=(1, 1), stride=(1, 1))
        (ca): CALayer(
          (body): Sequential(
            (0): Conv2d(128, 8, kernel_size=(1, 1), stride=(1, 1))
            (1): GELU()
            (2): Conv2d(8, 128, kernel_size=(1, 1), stride=(1, 1))
            (3): Sigmoid()
          )
          (avg): AdaptiveAvgPool2d(output_size=1)
        )
        (norm2): LayerNorm2d()
        (gdfn): FeedForward(
          (project_in): Conv2d(128, 680, kernel_size=(1, 1), stride=(1, 1), bias=False)
          (dwconv): Conv2d(680, 680, kernel_size=(3, 3), stride=(1, 1), padding=(1, 1), groups=680, bias=False)
          (project_out): Conv2d(340, 128, kernel_size=(1, 1), stride=(1, 1), bias=False)
        )
      )
      (5): CRB_Layer(
        (norm1): LayerNorm2d()
        (nla): NonLocalSparseAttention(
          (conv_match): BasicBlock(
            (0): Conv2d(128, 32, kernel_size=(3, 3), stride=(1, 1), padding=(1, 1))
          )
          (conv_assembly): BasicBlock(
            (0): Conv2d(128, 128, kernel_size=(1, 1), stride=(1, 1))
          )
        )
        (conv_local): Sequential(
          (0): Conv2d(128, 128, kernel_size=(3, 3), stride=(1, 1), padding=(1, 1), groups=128)
          (1): GELU()
          (2): Conv2d(128, 128, kernel_size=(3, 3), stride=(1, 1), padding=(1, 1), groups=128)
        )
        (conv1_last): Conv2d(256, 128, kernel_size=(1, 1), stride=(1, 1))
        (ca): CALayer(
          (body): Sequential(
            (0): Conv2d(128, 8, kernel_size=(1, 1), stride=(1, 1))
            (1): GELU()
            (2): Conv2d(8, 128, kernel_size=(1, 1), stride=(1, 1))
            (3): Sigmoid()
          )
          (avg): AdaptiveAvgPool2d(output_size=1)
        )
        (norm2): LayerNorm2d()
        (gdfn): FeedForward(
          (project_in): Conv2d(128, 680, kernel_size=(1, 1), stride=(1, 1), bias=False)
          (dwconv): Conv2d(680, 680, kernel_size=(3, 3), stride=(1, 1), padding=(1, 1), groups=680, bias=False)
          (project_out): Conv2d(340, 128, kernel_size=(1, 1), stride=(1, 1), bias=False)
        )
      )
      (6): CRB_Layer(
        (norm1): LayerNorm2d()
        (nla): NonLocalSparseAttention(
          (conv_match): BasicBlock(
            (0): Conv2d(128, 32, kernel_size=(3, 3), stride=(1, 1), padding=(1, 1))
          )
          (conv_assembly): BasicBlock(
            (0): Conv2d(128, 128, kernel_size=(1, 1), stride=(1, 1))
          )
        )
        (conv_local): Sequential(
          (0): Conv2d(128, 128, kernel_size=(3, 3), stride=(1, 1), padding=(1, 1), groups=128)
          (1): GELU()
          (2): Conv2d(128, 128, kernel_size=(3, 3), stride=(1, 1), padding=(1, 1), groups=128)
        )
        (conv1_last): Conv2d(256, 128, kernel_size=(1, 1), stride=(1, 1))
        (ca): CALayer(
          (body): Sequential(
            (0): Conv2d(128, 8, kernel_size=(1, 1), stride=(1, 1))
            (1): GELU()
            (2): Conv2d(8, 128, kernel_size=(1, 1), stride=(1, 1))
            (3): Sigmoid()
          )
          (avg): AdaptiveAvgPool2d(output_size=1)
        )
        (norm2): LayerNorm2d()
        (gdfn): FeedForward(
          (project_in): Conv2d(128, 680, kernel_size=(1, 1), stride=(1, 1), bias=False)
          (dwconv): Conv2d(680, 680, kernel_size=(3, 3), stride=(1, 1), padding=(1, 1), groups=680, bias=False)
          (project_out): Conv2d(340, 128, kernel_size=(1, 1), stride=(1, 1), bias=False)
        )
      )
      (7): CRB_Layer(
        (norm1): LayerNorm2d()
        (nla): NonLocalSparseAttention(
          (conv_match): BasicBlock(
            (0): Conv2d(128, 32, kernel_size=(3, 3), stride=(1, 1), padding=(1, 1))
          )
          (conv_assembly): BasicBlock(
            (0): Conv2d(128, 128, kernel_size=(1, 1), stride=(1, 1))
          )
        )
        (conv_local): Sequential(
          (0): Conv2d(128, 128, kernel_size=(3, 3), stride=(1, 1), padding=(1, 1), groups=128)
          (1): GELU()
          (2): Conv2d(128, 128, kernel_size=(3, 3), stride=(1, 1), padding=(1, 1), groups=128)
        )
        (conv1_last): Conv2d(256, 128, kernel_size=(1, 1), stride=(1, 1))
        (ca): CALayer(
          (body): Sequential(
            (0): Conv2d(128, 8, kernel_size=(1, 1), stride=(1, 1))
            (1): GELU()
            (2): Conv2d(8, 128, kernel_size=(1, 1), stride=(1, 1))
            (3): Sigmoid()
          )
          (avg): AdaptiveAvgPool2d(output_size=1)
        )
        (norm2): LayerNorm2d()
        (gdfn): FeedForward(
          (project_in): Conv2d(128, 680, kernel_size=(1, 1), stride=(1, 1), bias=False)
          (dwconv): Conv2d(680, 680, kernel_size=(3, 3), stride=(1, 1), padding=(1, 1), groups=680, bias=False)
          (project_out): Conv2d(340, 128, kernel_size=(1, 1), stride=(1, 1), bias=False)
        )
      )
    )
    (refine_block): Sequential(
      (0): CRB_Layer(
        (norm1): LayerNorm2d()
        (nla): NonLocalSparseAttention(
          (conv_match): BasicBlock(
            (0): Conv2d(128, 32, kernel_size=(3, 3), stride=(1, 1), padding=(1, 1))
          )
          (conv_assembly): BasicBlock(
            (0): Conv2d(128, 128, kernel_size=(1, 1), stride=(1, 1))
          )
        )
        (conv_local): Sequential(
          (0): Conv2d(128, 128, kernel_size=(3, 3), stride=(1, 1), padding=(1, 1), groups=128)
          (1): GELU()
          (2): Conv2d(128, 128, kernel_size=(3, 3), stride=(1, 1), padding=(1, 1), groups=128)
        )
        (conv1_last): Conv2d(256, 128, kernel_size=(1, 1), stride=(1, 1))
        (ca): CALayer(
          (body): Sequential(
            (0): Conv2d(128, 8, kernel_size=(1, 1), stride=(1, 1))
            (1): GELU()
            (2): Conv2d(8, 128, kernel_size=(1, 1), stride=(1, 1))
            (3): Sigmoid()
          )
          (avg): AdaptiveAvgPool2d(output_size=1)
        )
        (norm2): LayerNorm2d()
        (gdfn): FeedForward(
          (project_in): Conv2d(128, 680, kernel_size=(1, 1), stride=(1, 1), bias=False)
          (dwconv): Conv2d(680, 680, kernel_size=(3, 3), stride=(1, 1), padding=(1, 1), groups=680, bias=False)
          (project_out): Conv2d(340, 128, kernel_size=(1, 1), stride=(1, 1), bias=False)
        )
      )
      (1): CRB_Layer(
        (norm1): LayerNorm2d()
        (nla): NonLocalSparseAttention(
          (conv_match): BasicBlock(
            (0): Conv2d(128, 32, kernel_size=(3, 3), stride=(1, 1), padding=(1, 1))
          )
          (conv_assembly): BasicBlock(
            (0): Conv2d(128, 128, kernel_size=(1, 1), stride=(1, 1))
          )
        )
        (conv_local): Sequential(
          (0): Conv2d(128, 128, kernel_size=(3, 3), stride=(1, 1), padding=(1, 1), groups=128)
          (1): GELU()
          (2): Conv2d(128, 128, kernel_size=(3, 3), stride=(1, 1), padding=(1, 1), groups=128)
        )
        (conv1_last): Conv2d(256, 128, kernel_size=(1, 1), stride=(1, 1))
        (ca): CALayer(
          (body): Sequential(
            (0): Conv2d(128, 8, kernel_size=(1, 1), stride=(1, 1))
            (1): GELU()
            (2): Conv2d(8, 128, kernel_size=(1, 1), stride=(1, 1))
            (3): Sigmoid()
          )
          (avg): AdaptiveAvgPool2d(output_size=1)
        )
        (norm2): LayerNorm2d()
        (gdfn): FeedForward(
          (project_in): Conv2d(128, 680, kernel_size=(1, 1), stride=(1, 1), bias=False)
          (dwconv): Conv2d(680, 680, kernel_size=(3, 3), stride=(1, 1), padding=(1, 1), groups=680, bias=False)
          (project_out): Conv2d(340, 128, kernel_size=(1, 1), stride=(1, 1), bias=False)
        )
      )
      (2): CRB_Layer(
        (norm1): LayerNorm2d()
        (nla): NonLocalSparseAttention(
          (conv_match): BasicBlock(
            (0): Conv2d(128, 32, kernel_size=(3, 3), stride=(1, 1), padding=(1, 1))
          )
          (conv_assembly): BasicBlock(
            (0): Conv2d(128, 128, kernel_size=(1, 1), stride=(1, 1))
          )
        )
        (conv_local): Sequential(
          (0): Conv2d(128, 128, kernel_size=(3, 3), stride=(1, 1), padding=(1, 1), groups=128)
          (1): GELU()
          (2): Conv2d(128, 128, kernel_size=(3, 3), stride=(1, 1), padding=(1, 1), groups=128)
        )
        (conv1_last): Conv2d(256, 128, kernel_size=(1, 1), stride=(1, 1))
        (ca): CALayer(
          (body): Sequential(
            (0): Conv2d(128, 8, kernel_size=(1, 1), stride=(1, 1))
            (1): GELU()
            (2): Conv2d(8, 128, kernel_size=(1, 1), stride=(1, 1))
            (3): Sigmoid()
          )
          (avg): AdaptiveAvgPool2d(output_size=1)
        )
        (norm2): LayerNorm2d()
        (gdfn): FeedForward(
          (project_in): Conv2d(128, 680, kernel_size=(1, 1), stride=(1, 1), bias=False)
          (dwconv): Conv2d(680, 680, kernel_size=(3, 3), stride=(1, 1), padding=(1, 1), groups=680, bias=False)
          (project_out): Conv2d(340, 128, kernel_size=(1, 1), stride=(1, 1), bias=False)
        )
      )
      (3): CRB_Layer(
        (norm1): LayerNorm2d()
        (nla): NonLocalSparseAttention(
          (conv_match): BasicBlock(
            (0): Conv2d(128, 32, kernel_size=(3, 3), stride=(1, 1), padding=(1, 1))
          )
          (conv_assembly): BasicBlock(
            (0): Conv2d(128, 128, kernel_size=(1, 1), stride=(1, 1))
          )
        )
        (conv_local): Sequential(
          (0): Conv2d(128, 128, kernel_size=(3, 3), stride=(1, 1), padding=(1, 1), groups=128)
          (1): GELU()
          (2): Conv2d(128, 128, kernel_size=(3, 3), stride=(1, 1), padding=(1, 1), groups=128)
        )
        (conv1_last): Conv2d(256, 128, kernel_size=(1, 1), stride=(1, 1))
        (ca): CALayer(
          (body): Sequential(
            (0): Conv2d(128, 8, kernel_size=(1, 1), stride=(1, 1))
            (1): GELU()
            (2): Conv2d(8, 128, kernel_size=(1, 1), stride=(1, 1))
            (3): Sigmoid()
          )
          (avg): AdaptiveAvgPool2d(output_size=1)
        )
        (norm2): LayerNorm2d()
        (gdfn): FeedForward(
          (project_in): Conv2d(128, 680, kernel_size=(1, 1), stride=(1, 1), bias=False)
          (dwconv): Conv2d(680, 680, kernel_size=(3, 3), stride=(1, 1), padding=(1, 1), groups=680, bias=False)
          (project_out): Conv2d(340, 128, kernel_size=(1, 1), stride=(1, 1), bias=False)
        )
      )
      (4): CRB_Layer(
        (norm1): LayerNorm2d()
        (nla): NonLocalSparseAttention(
          (conv_match): BasicBlock(
            (0): Conv2d(128, 32, kernel_size=(3, 3), stride=(1, 1), padding=(1, 1))
          )
          (conv_assembly): BasicBlock(
            (0): Conv2d(128, 128, kernel_size=(1, 1), stride=(1, 1))
          )
        )
        (conv_local): Sequential(
          (0): Conv2d(128, 128, kernel_size=(3, 3), stride=(1, 1), padding=(1, 1), groups=128)
          (1): GELU()
          (2): Conv2d(128, 128, kernel_size=(3, 3), stride=(1, 1), padding=(1, 1), groups=128)
        )
        (conv1_last): Conv2d(256, 128, kernel_size=(1, 1), stride=(1, 1))
        (ca): CALayer(
          (body): Sequential(
            (0): Conv2d(128, 8, kernel_size=(1, 1), stride=(1, 1))
            (1): GELU()
            (2): Conv2d(8, 128, kernel_size=(1, 1), stride=(1, 1))
            (3): Sigmoid()
          )
          (avg): AdaptiveAvgPool2d(output_size=1)
        )
        (norm2): LayerNorm2d()
        (gdfn): FeedForward(
          (project_in): Conv2d(128, 680, kernel_size=(1, 1), stride=(1, 1), bias=False)
          (dwconv): Conv2d(680, 680, kernel_size=(3, 3), stride=(1, 1), padding=(1, 1), groups=680, bias=False)
          (project_out): Conv2d(340, 128, kernel_size=(1, 1), stride=(1, 1), bias=False)
        )
      )
      (5): CRB_Layer(
        (norm1): LayerNorm2d()
        (nla): NonLocalSparseAttention(
          (conv_match): BasicBlock(
            (0): Conv2d(128, 32, kernel_size=(3, 3), stride=(1, 1), padding=(1, 1))
          )
          (conv_assembly): BasicBlock(
            (0): Conv2d(128, 128, kernel_size=(1, 1), stride=(1, 1))
          )
        )
        (conv_local): Sequential(
          (0): Conv2d(128, 128, kernel_size=(3, 3), stride=(1, 1), padding=(1, 1), groups=128)
          (1): GELU()
          (2): Conv2d(128, 128, kernel_size=(3, 3), stride=(1, 1), padding=(1, 1), groups=128)
        )
        (conv1_last): Conv2d(256, 128, kernel_size=(1, 1), stride=(1, 1))
        (ca): CALayer(
          (body): Sequential(
            (0): Conv2d(128, 8, kernel_size=(1, 1), stride=(1, 1))
            (1): GELU()
            (2): Conv2d(8, 128, kernel_size=(1, 1), stride=(1, 1))
            (3): Sigmoid()
          )
          (avg): AdaptiveAvgPool2d(output_size=1)
        )
        (norm2): LayerNorm2d()
        (gdfn): FeedForward(
          (project_in): Conv2d(128, 680, kernel_size=(1, 1), stride=(1, 1), bias=False)
          (dwconv): Conv2d(680, 680, kernel_size=(3, 3), stride=(1, 1), padding=(1, 1), groups=680, bias=False)
          (project_out): Conv2d(340, 128, kernel_size=(1, 1), stride=(1, 1), bias=False)
        )
      )
      (6): CRB_Layer(
        (norm1): LayerNorm2d()
        (nla): NonLocalSparseAttention(
          (conv_match): BasicBlock(
            (0): Conv2d(128, 32, kernel_size=(3, 3), stride=(1, 1), padding=(1, 1))
          )
          (conv_assembly): BasicBlock(
            (0): Conv2d(128, 128, kernel_size=(1, 1), stride=(1, 1))
          )
        )
        (conv_local): Sequential(
          (0): Conv2d(128, 128, kernel_size=(3, 3), stride=(1, 1), padding=(1, 1), groups=128)
          (1): GELU()
          (2): Conv2d(128, 128, kernel_size=(3, 3), stride=(1, 1), padding=(1, 1), groups=128)
        )
        (conv1_last): Conv2d(256, 128, kernel_size=(1, 1), stride=(1, 1))
        (ca): CALayer(
          (body): Sequential(
            (0): Conv2d(128, 8, kernel_size=(1, 1), stride=(1, 1))
            (1): GELU()
            (2): Conv2d(8, 128, kernel_size=(1, 1), stride=(1, 1))
            (3): Sigmoid()
          )
          (avg): AdaptiveAvgPool2d(output_size=1)
        )
        (norm2): LayerNorm2d()
        (gdfn): FeedForward(
          (project_in): Conv2d(128, 680, kernel_size=(1, 1), stride=(1, 1), bias=False)
          (dwconv): Conv2d(680, 680, kernel_size=(3, 3), stride=(1, 1), padding=(1, 1), groups=680, bias=False)
          (project_out): Conv2d(340, 128, kernel_size=(1, 1), stride=(1, 1), bias=False)
        )
      )
      (7): CRB_Layer(
        (norm1): LayerNorm2d()
        (nla): NonLocalSparseAttention(
          (conv_match): BasicBlock(
            (0): Conv2d(128, 32, kernel_size=(3, 3), stride=(1, 1), padding=(1, 1))
          )
          (conv_assembly): BasicBlock(
            (0): Conv2d(128, 128, kernel_size=(1, 1), stride=(1, 1))
          )
        )
        (conv_local): Sequential(
          (0): Conv2d(128, 128, kernel_size=(3, 3), stride=(1, 1), padding=(1, 1), groups=128)
          (1): GELU()
          (2): Conv2d(128, 128, kernel_size=(3, 3), stride=(1, 1), padding=(1, 1), groups=128)
        )
        (conv1_last): Conv2d(256, 128, kernel_size=(1, 1), stride=(1, 1))
        (ca): CALayer(
          (body): Sequential(
            (0): Conv2d(128, 8, kernel_size=(1, 1), stride=(1, 1))
            (1): GELU()
            (2): Conv2d(8, 128, kernel_size=(1, 1), stride=(1, 1))
            (3): Sigmoid()
          )
          (avg): AdaptiveAvgPool2d(output_size=1)
        )
        (norm2): LayerNorm2d()
        (gdfn): FeedForward(
          (project_in): Conv2d(128, 680, kernel_size=(1, 1), stride=(1, 1), bias=False)
          (dwconv): Conv2d(680, 680, kernel_size=(3, 3), stride=(1, 1), padding=(1, 1), groups=680, bias=False)
          (project_out): Conv2d(340, 128, kernel_size=(1, 1), stride=(1, 1), bias=False)
        )
      )
    )
    (fusion): Conv2d(128, 64, kernel_size=(3, 3), stride=(1, 1), padding=(1, 1))
    (upscale): Sequential(
      (0): Conv2d(64, 256, kernel_size=(3, 3), stride=(1, 1), padding=(1, 1))
      (1): PixelShuffle(upscale_factor=2)
      (2): Conv2d(64, 256, kernel_size=(3, 3), stride=(1, 1), padding=(1, 1))
      (3): PixelShuffle(upscale_factor=2)
      (4): Conv2d(64, 3, kernel_size=(3, 3), stride=(1, 1), padding=(1, 1))
    )
  )
)
22-11-30 21:36:04.028 - INFO: Loading model for G [/share/home/104632/jiancong/DAN-unet/experiments/DANv1/DANx4_setting2/models/900000_G.pth] ...
22-11-30 21:36:04.872 - INFO: Model [B_Model] is created.
22-11-30 21:36:04.872 - INFO: 
Testing [DIV2KRK]...
22-11-30 21:36:06.462 - INFO: img:img_100_gt      - PSNR: 24.001970 dB; SSIM: 0.778328; PSNR_Y: 25.188310 dB; SSIM_Y: 0.801817.
…
