…
    save_checkpoint_freq: 5000.0
  ]
  is_train: True
  dist: True

22-11-17 17:42:24.911 - INFO: Dataset [GTDataset - DIV2K] is created.
22-11-17 17:42:24.912 - INFO: Number of train images: 3,450, iters: 863
22-11-17 17:42:24.912 - INFO: Total epochs needed: 7 for iters 1,200,000
22-11-17 17:42:24.912 - INFO: Dataset [LQGTDataset - DIV2KRK] is created.
22-11-17 17:42:24.913 - INFO: Number of val images in [DIV2KRK]: 100
22-11-17 17:42:28.634 - INFO: Network G structure: DistributedDataParallel - DAN, with parameters: 18,113,619
22-11-17 17:42:28.634 - INFO: NLCUnet(
  (Restorer): Restorer(
    (head): Conv2d(3, 64, kernel_size=(3, 3), stride=(1, 1), padding=(1, 1))
    (encoder_block1): Sequential(
      (0): CRB_Layer(
        (norm1): LayerNorm2d()
        (nla): NonLocalSparseAttention(
          (conv_match): BasicBlock(
            (0): Conv2d(64, 16, kernel_size=(3, 3), stride=(1, 1), padding=(1, 1))
          )
          (conv_assembly): BasicBlock(
            (0): Conv2d(64, 64, kernel_size=(1, 1), stride=(1, 1))
          )
        )
        (conv_local): Sequential(
          (0): Conv2d(64, 64, kernel_size=(3, 3), stride=(1, 1), padding=(1, 1), groups=64)
          (1): GELU()
          (2): Conv2d(64, 64, kernel_size=(3, 3), stride=(1, 1), padding=(1, 1), groups=64)
        )
        (conv1_last): Conv2d(128, 64, kernel_size=(1, 1), stride=(1, 1))
        (ca): CALayer(
          (body): Sequential(
            (0): Conv2d(64, 4, kernel_size=(1, 1), stride=(1, 1))
            (1): GELU()
            (2): Conv2d(4, 64, kernel_size=(1, 1), stride=(1, 1))
            (3): Sigmoid()
          )
          (avg): AdaptiveAvgPool2d(output_size=1)
        )
        (norm2): LayerNorm2d()
        (gdfn): FeedForward(
          (project_in): Conv2d(64, 340, kernel_size=(1, 1), stride=(1, 1), bias=False)
          (dwconv): Conv2d(340, 340, kernel_size=(3, 3), stride=(1, 1), padding=(1, 1), groups=340, bias=False)
          (project_out): Conv2d(170, 64, kernel_size=(1, 1), stride=(1, 1), bias=False)
        )
      )
      (1): CRB_Layer(
        (norm1): LayerNorm2d()
        (nla): NonLocalSparseAttention(
          (conv_match): BasicBlock(
            (0): Conv2d(64, 16, kernel_size=(3, 3), stride=(1, 1), padding=(1, 1))
          )
          (conv_assembly): BasicBlock(
            (0): Conv2d(64, 64, kernel_size=(1, 1), stride=(1, 1))
          )
        )
        (conv_local): Sequential(
          (0): Conv2d(64, 64, kernel_size=(3, 3), stride=(1, 1), padding=(1, 1), groups=64)
          (1): GELU()
          (2): Conv2d(64, 64, kernel_size=(3, 3), stride=(1, 1), padding=(1, 1), groups=64)
        )
        (conv1_last): Conv2d(128, 64, kernel_size=(1, 1), stride=(1, 1))
        (ca): CALayer(
          (body): Sequential(
            (0): Conv2d(64, 4, kernel_size=(1, 1), stride=(1, 1))
            (1): GELU()
            (2): Conv2d(4, 64, kernel_size=(1, 1), stride=(1, 1))
            (3): Sigmoid()
          )
          (avg): AdaptiveAvgPool2d(output_size=1)
        )
        (norm2): LayerNorm2d()
        (gdfn): FeedForward(
          (project_in): Conv2d(64, 340, kernel_size=(1, 1), stride=(1, 1), bias=False)
          (dwconv): Conv2d(340, 340, kernel_size=(3, 3), stride=(1, 1), padding=(1, 1), groups=340, bias=False)
          (project_out): Conv2d(170, 64, kernel_size=(1, 1), stride=(1, 1), bias=False)
        )
      )
      (2): CRB_Layer(
        (norm1): LayerNorm2d()
        (nla): NonLocalSparseAttention(
          (conv_match): BasicBlock(
            (0): Conv2d(64, 16, kernel_size=(3, 3), stride=(1, 1), padding=(1, 1))
          )
          (conv_assembly): BasicBlock(
            (0): Conv2d(64, 64, kernel_size=(1, 1), stride=(1, 1))
          )
        )
        (conv_local): Sequential(
          (0): Conv2d(64, 64, kernel_size=(3, 3), stride=(1, 1), padding=(1, 1), groups=64)
          (1): GELU()
          (2): Conv2d(64, 64, kernel_size=(3, 3), stride=(1, 1), padding=(1, 1), groups=64)
        )
        (conv1_last): Conv2d(128, 64, kernel_size=(1, 1), stride=(1, 1))
        (ca): CALayer(
          (body): Sequential(
            (0): Conv2d(64, 4, kernel_size=(1, 1), stride=(1, 1))
            (1): GELU()
            (2): Conv2d(4, 64, kernel_size=(1, 1), stride=(1, 1))
            (3): Sigmoid()
          )
          (avg): AdaptiveAvgPool2d(output_size=1)
        )
        (norm2): LayerNorm2d()
        (gdfn): FeedForward(
          (project_in): Conv2d(64, 340, kernel_size=(1, 1), stride=(1, 1), bias=False)
          (dwconv): Conv2d(340, 340, kernel_size=(3, 3), stride=(1, 1), padding=(1, 1), groups=340, bias=False)
          (project_out): Conv2d(170, 64, kernel_size=(1, 1), stride=(1, 1), bias=False)
        )
      )
      (3): CRB_Layer(
        (norm1): LayerNorm2d()
        (nla): NonLocalSparseAttention(
          (conv_match): BasicBlock(
            (0): Conv2d(64, 16, kernel_size=(3, 3), stride=(1, 1), padding=(1, 1))
          )
          (conv_assembly): BasicBlock(
            (0): Conv2d(64, 64, kernel_size=(1, 1), stride=(1, 1))
          )
        )
        (conv_local): Sequential(
          (0): Conv2d(64, 64, kernel_size=(3, 3), stride=(1, 1), padding=(1, 1), groups=64)
          (1): GELU()
          (2): Conv2d(64, 64, kernel_size=(3, 3), stride=(1, 1), padding=(1, 1), groups=64)
        )
        (conv1_last): Conv2d(128, 64, kernel_size=(1, 1), stride=(1, 1))
        (ca): CALayer(
          (body): Sequential(
            (0): Conv2d(64, 4, kernel_size=(1, 1), stride=(1, 1))
            (1): GELU()
            (2): Conv2d(4, 64, kernel_size=(1, 1), stride=(1, 1))
            (3): Sigmoid()
          )
          (avg): AdaptiveAvgPool2d(output_size=1)
        )
        (norm2): LayerNorm2d()
        (gdfn): FeedForward(
          (project_in): Conv2d(64, 340, kernel_size=(1, 1), stride=(1, 1), bias=False)
          (dwconv): Conv2d(340, 340, kernel_size=(3, 3), stride=(1, 1), padding=(1, 1), groups=340, bias=False)
          (project_out): Conv2d(170, 64, kernel_size=(1, 1), stride=(1, 1), bias=False)
        )
      )
      (4): CRB_Layer(
        (norm1): LayerNorm2d()
        (nla): NonLocalSparseAttention(
          (conv_match): BasicBlock(
            (0): Conv2d(64, 16, kernel_size=(3, 3), stride=(1, 1), padding=(1, 1))
          )
          (conv_assembly): BasicBlock(
            (0): Conv2d(64, 64, kernel_size=(1, 1), stride=(1, 1))
          )
        )
        (conv_local): Sequential(
          (0): Conv2d(64, 64, kernel_size=(3, 3), stride=(1, 1), padding=(1, 1), groups=64)
          (1): GELU()
          (2): Conv2d(64, 64, kernel_size=(3, 3), stride=(1, 1), padding=(1, 1), groups=64)
        )
        (conv1_last): Conv2d(128, 64, kernel_size=(1, 1), stride=(1, 1))
        (ca): CALayer(
          (body): Sequential(
            (0): Conv2d(64, 4, kernel_size=(1, 1), stride=(1, 1))
            (1): GELU()
            (2): Conv2d(4, 64, kernel_size=(1, 1), stride=(1, 1))
            (3): Sigmoid()
          )
          (avg): AdaptiveAvgPool2d(output_size=1)
        )
        (norm2): LayerNorm2d()
        (gdfn): FeedForward(
          (project_in): Conv2d(64, 340, kernel_size=(1, 1), stride=(1, 1), bias=False)
          (dwconv): Conv2d(340, 340, kernel_size=(3, 3), stride=(1, 1), padding=(1, 1), groups=340, bias=False)
          (project_out): Conv2d(170, 64, kernel_size=(1, 1), stride=(1, 1), bias=False)
        )
      )
      (5): CRB_Layer(
        (norm1): LayerNorm2d()
        (nla): NonLocalSparseAttention(
          (conv_match): BasicBlock(
            (0): Conv2d(64, 16, kernel_size=(3, 3), stride=(1, 1), padding=(1, 1))
          )
          (conv_assembly): BasicBlock(
            (0): Conv2d(64, 64, kernel_size=(1, 1), stride=(1, 1))
          )
        )
        (conv_local): Sequential(
          (0): Conv2d(64, 64, kernel_size=(3, 3), stride=(1, 1), padding=(1, 1), groups=64)
          (1): GELU()
          (2): Conv2d(64, 64, kernel_size=(3, 3), stride=(1, 1), padding=(1, 1), groups=64)
        )
        (conv1_last): Conv2d(128, 64, kernel_size=(1, 1), stride=(1, 1))
        (ca): CALayer(
          (body): Sequential(
            (0): Conv2d(64, 4, kernel_size=(1, 1), stride=(1, 1))
            (1): GELU()
            (2): Conv2d(4, 64, kernel_size=(1, 1), stride=(1, 1))
            (3): Sigmoid()
          )
          (avg): AdaptiveAvgPool2d(output_size=1)
        )
        (norm2): LayerNorm2d()
        (gdfn): FeedForward(
          (project_in): Conv2d(64, 340, kernel_size=(1, 1), stride=(1, 1), bias=False)
          (dwconv): Conv2d(340, 340, kernel_size=(3, 3), stride=(1, 1), padding=(1, 1), groups=340, bias=False)
          (project_out): Conv2d(170, 64, kernel_size=(1, 1), stride=(1, 1), bias=False)
        )
      )
    )
    (down1): UnetDownsample(
      (body): Sequential(
        (0): Conv2d(64, 32, kernel_size=(3, 3), stride=(1, 1), padding=(1, 1), bias=False)
        (1): PixelUnshuffle(downscale_factor=2)
      )
    )
    (encoder_block2): Sequential(
      (0): CRB_Layer(
        (norm1): LayerNorm2d()
        (nla): NonLocalSparseAttention(
          (conv_match): BasicBlock(
            (0): Conv2d(128, 32, kernel_size=(3, 3), stride=(1, 1), padding=(1, 1))
          )
          (conv_assembly): BasicBlock(
            (0): Conv2d(128, 128, kernel_size=(1, 1), stride=(1, 1))
          )
        )
        (conv_local): Sequential(
          (0): Conv2d(128, 128, kernel_size=(3, 3), stride=(1, 1), padding=(1, 1), groups=128)
          (1): GELU()
          (2): Conv2d(128, 128, kernel_size=(3, 3), stride=(1, 1), padding=(1, 1), groups=128)
        )
        (conv1_last): Conv2d(256, 128, kernel_size=(1, 1), stride=(1, 1))
        (ca): CALayer(
          (body): Sequential(
            (0): Conv2d(128, 8, kernel_size=(1, 1), stride=(1, 1))
            (1): GELU()
            (2): Conv2d(8, 128, kernel_size=(1, 1), stride=(1, 1))
            (3): Sigmoid()
          )
          (avg): AdaptiveAvgPool2d(output_size=1)
        )
        (norm2): LayerNorm2d()
        (gdfn): FeedForward(
          (project_in): Conv2d(128, 680, kernel_size=(1, 1), stride=(1, 1), bias=False)
          (dwconv): Conv2d(680, 680, kernel_size=(3, 3), stride=(1, 1), padding=(1, 1), groups=680, bias=False)
          (project_out): Conv2d(340, 128, kernel_size=(1, 1), stride=(1, 1), bias=False)
        )
      )
      (1): CRB_Layer(
        (norm1): LayerNorm2d()
        (nla): NonLocalSparseAttention(
          (conv_match): BasicBlock(
            (0): Conv2d(128, 32, kernel_size=(3, 3), stride=(1, 1), padding=(1, 1))
          )
          (conv_assembly): BasicBlock(
            (0): Conv2d(128, 128, kernel_size=(1, 1), stride=(1, 1))
          )
        )
        (conv_local): Sequential(
          (0): Conv2d(128, 128, kernel_size=(3, 3), stride=(1, 1), padding=(1, 1), groups=128)
          (1): GELU()
          (2): Conv2d(128, 128, kernel_size=(3, 3), stride=(1, 1), padding=(1, 1), groups=128)
        )
        (conv1_last): Conv2d(256, 128, kernel_size=(1, 1), stride=(1, 1))
        (ca): CALayer(
          (body): Sequential(
            (0): Conv2d(128, 8, kernel_size=(1, 1), stride=(1, 1))
            (1): GELU()
            (2): Conv2d(8, 128, kernel_size=(1, 1), stride=(1, 1))
            (3): Sigmoid()
          )
          (avg): AdaptiveAvgPool2d(output_size=1)
        )
        (norm2): LayerNorm2d()
        (gdfn): FeedForward(
          (project_in): Conv2d(128, 680, kernel_size=(1, 1), stride=(1, 1), bias=False)
          (dwconv): Conv2d(680, 680, kernel_size=(3, 3), stride=(1, 1), padding=(1, 1), groups=680, bias=False)
          (project_out): Conv2d(340, 128, kernel_size=(1, 1), stride=(1, 1), bias=False)
        )
      )
      (2): CRB_Layer(
        (norm1): LayerNorm2d()
        (nla): NonLocalSparseAttention(
          (conv_match): BasicBlock(
            (0): Conv2d(128, 32, kernel_size=(3, 3), stride=(1, 1), padding=(1, 1))
          )
          (conv_assembly): BasicBlock(
            (0): Conv2d(128, 128, kernel_size=(1, 1), stride=(1, 1))
          )
        )
        (conv_local): Sequential(
          (0): Conv2d(128, 128, kernel_size=(3, 3), stride=(1, 1), padding=(1, 1), groups=128)
          (1): GELU()
          (2): Conv2d(128, 128, kernel_size=(3, 3), stride=(1, 1), padding=(1, 1), groups=128)
        )
        (conv1_last): Conv2d(256, 128, kernel_size=(1, 1), stride=(1, 1))
        (ca): CALayer(
          (body): Sequential(
            (0): Conv2d(128, 8, kernel_size=(1, 1), stride=(1, 1))
            (1): GELU()
            (2): Conv2d(8, 128, kernel_size=(1, 1), stride=(1, 1))
            (3): Sigmoid()
          )
          (avg): AdaptiveAvgPool2d(output_size=1)
        )
        (norm2): LayerNorm2d()
        (gdfn): FeedForward(
          (project_in): Conv2d(128, 680, kernel_size=(1, 1), stride=(1, 1), bias=False)
          (dwconv): Conv2d(680, 680, kernel_size=(3, 3), stride=(1, 1), padding=(1, 1), groups=680, bias=False)
          (project_out): Conv2d(340, 128, kernel_size=(1, 1), stride=(1, 1), bias=False)
        )
      )
      (3): CRB_Layer(
        (norm1): LayerNorm2d()
        (nla): NonLocalSparseAttention(
          (conv_match): BasicBlock(
            (0): Conv2d(128, 32, kernel_size=(3, 3), stride=(1, 1), padding=(1, 1))
          )
          (conv_assembly): BasicBlock(
            (0): Conv2d(128, 128, kernel_size=(1, 1), stride=(1, 1))
          )
        )
        (conv_local): Sequential(
          (0): Conv2d(128, 128, kernel_size=(3, 3), stride=(1, 1), padding=(1, 1), groups=128)
          (1): GELU()
          (2): Conv2d(128, 128, kernel_size=(3, 3), stride=(1, 1), padding=(1, 1), groups=128)
        )
        (conv1_last): Conv2d(256, 128, kernel_size=(1, 1), stride=(1, 1))
        (ca): CALayer(
          (body): Sequential(
            (0): Conv2d(128, 8, kernel_size=(1, 1), stride=(1, 1))
            (1): GELU()
            (2): Conv2d(8, 128, kernel_size=(1, 1), stride=(1, 1))
            (3): Sigmoid()
          )
          (avg): AdaptiveAvgPool2d(output_size=1)
        )
        (norm2): LayerNorm2d()
        (gdfn): FeedForward(
          (project_in): Conv2d(128, 680, kernel_size=(1, 1), stride=(1, 1), bias=False)
          (dwconv): Conv2d(680, 680, kernel_size=(3, 3), stride=(1, 1), padding=(1, 1), groups=680, bias=False)
          (project_out): Conv2d(340, 128, kernel_size=(1, 1), stride=(1, 1), bias=False)
        )
      )
      (4): CRB_Layer(
        (norm1): LayerNorm2d()
        (nla): NonLocalSparseAttention(
          (conv_match): BasicBlock(
            (0): Conv2d(128, 32, kernel_size=(3, 3), stride=(1, 1), padding=(1, 1))
          )
          (conv_assembly): BasicBlock(
            (0): Conv2d(128, 128, kernel_size=(1, 1), stride=(1, 1))
          )
        )
        (conv_local): Sequential(
          (0): Conv2d(128, 128, kernel_size=(3, 3), stride=(1, 1), padding=(1, 1), groups=128)
          (1): GELU()
          (2): Conv2d(128, 128, kernel_size=(3, 3), stride=(1, 1), padding=(1, 1), groups=128)
        )
        (conv1_last): Conv2d(256, 128, kernel_size=(1, 1), stride=(1, 1))
        (ca): CALayer(
          (body): Sequential(
            (0): Conv2d(128, 8, kernel_size=(1, 1), stride=(1, 1))
            (1): GELU()
            (2): Conv2d(8, 128, kernel_size=(1, 1), stride=(1, 1))
            (3): Sigmoid()
          )
          (avg): AdaptiveAvgPool2d(output_size=1)
        )
        (norm2): LayerNorm2d()
        (gdfn): FeedForward(
          (project_in): Conv2d(128, 680, kernel_size=(1, 1), stride=(1, 1), bias=False)
          (dwconv): Conv2d(680, 680, kernel_size=(3, 3), stride=(1, 1), padding=(1, 1), groups=680, bias=False)
          (project_out): Conv2d(340, 128, kernel_size=(1, 1), stride=(1, 1), bias=False)
        )
      )
      (5): CRB_Layer(
        (norm1): LayerNorm2d()
        (nla): NonLocalSparseAttention(
          (conv_match): BasicBlock(
            (0): Conv2d(128, 32, kernel_size=(3, 3), stride=(1, 1), padding=(1, 1))
          )
          (conv_assembly): BasicBlock(
            (0): Conv2d(128, 128, kernel_size=(1, 1), stride=(1, 1))
          )
        )
        (conv_local): Sequential(
          (0): Conv2d(128, 128, kernel_size=(3, 3), stride=(1, 1), padding=(1, 1), groups=128)
          (1): GELU()
          (2): Conv2d(128, 128, kernel_size=(3, 3), stride=(1, 1), padding=(1, 1), groups=128)
        )
        (conv1_last): Conv2d(256, 128, kernel_size=(1, 1), stride=(1, 1))
        (ca): CALayer(
          (body): Sequential(
            (0): Conv2d(128, 8, kernel_size=(1, 1), stride=(1, 1))
            (1): GELU()
            (2): Conv2d(8, 128, kernel_size=(1, 1), stride=(1, 1))
            (3): Sigmoid()
          )
          (avg): AdaptiveAvgPool2d(output_size=1)
        )
        (norm2): LayerNorm2d()
        (gdfn): FeedForward(
          (project_in): Conv2d(128, 680, kernel_size=(1, 1), stride=(1, 1), bias=False)
          (dwconv): Conv2d(680, 680, kernel_size=(3, 3), stride=(1, 1), padding=(1, 1), groups=680, bias=False)
          (project_out): Conv2d(340, 128, kernel_size=(1, 1), stride=(1, 1), bias=False)
        )
      )
      (6): CRB_Layer(
        (norm1): LayerNorm2d()
        (nla): NonLocalSparseAttention(
          (conv_match): BasicBlock(
            (0): Conv2d(128, 32, kernel_size=(3, 3), stride=(1, 1), padding=(1, 1))
          )
          (conv_assembly): BasicBlock(
            (0): Conv2d(128, 128, kernel_size=(1, 1), stride=(1, 1))
          )
        )
        (conv_local): Sequential(
          (0): Conv2d(128, 128, kernel_size=(3, 3), stride=(1, 1), padding=(1, 1), groups=128)
          (1): GELU()
          (2): Conv2d(128, 128, kernel_size=(3, 3), stride=(1, 1), padding=(1, 1), groups=128)
        )
        (conv1_last): Conv2d(256, 128, kernel_size=(1, 1), stride=(1, 1))
        (ca): CALayer(
          (body): Sequential(
            (0): Conv2d(128, 8, kernel_size=(1, 1), stride=(1, 1))
            (1): GELU()
            (2): Conv2d(8, 128, kernel_size=(1, 1), stride=(1, 1))
            (3): Sigmoid()
          )
          (avg): AdaptiveAvgPool2d(output_size=1)
        )
        (norm2): LayerNorm2d()
        (gdfn): FeedForward(
          (project_in): Conv2d(128, 680, kernel_size=(1, 1), stride=(1, 1), bias=False)
          (dwconv): Conv2d(680, 680, kernel_size=(3, 3), stride=(1, 1), padding=(1, 1), groups=680, bias=False)
          (project_out): Conv2d(340, 128, kernel_size=(1, 1), stride=(1, 1), bias=False)
        )
      )
      (7): CRB_Layer(
        (norm1): LayerNorm2d()
        (nla): NonLocalSparseAttention(
          (conv_match): BasicBlock(
            (0): Conv2d(128, 32, kernel_size=(3, 3), stride=(1, 1), padding=(1, 1))
          )
          (conv_assembly): BasicBlock(
            (0): Conv2d(128, 128, kernel_size=(1, 1), stride=(1, 1))
          )
        )
        (conv_local): Sequential(
          (0): Conv2d(128, 128, kernel_size=(3, 3), stride=(1, 1), padding=(1, 1), groups=128)
          (1): GELU()
          (2): Conv2d(128, 128, kernel_size=(3, 3), stride=(1, 1), padding=(1, 1), groups=128)
        )
        (conv1_last): Conv2d(256, 128, kernel_size=(1, 1), stride=(1, 1))
        (ca): CALayer(
          (body): Sequential(
            (0): Conv2d(128, 8, kernel_size=(1, 1), stride=(1, 1))
            (1): GELU()
            (2): Conv2d(8, 128, kernel_size=(1, 1), stride=(1, 1))
            (3): Sigmoid()
          )
          (avg): AdaptiveAvgPool2d(output_size=1)
        )
        (norm2): LayerNorm2d()
        (gdfn): FeedForward(
          (project_in): Conv2d(128, 680, kernel_size=(1, 1), stride=(1, 1), bias=False)
          (dwconv): Conv2d(680, 680, kernel_size=(3, 3), stride=(1, 1), padding=(1, 1), groups=680, bias=False)
          (project_out): Conv2d(340, 128, kernel_size=(1, 1), stride=(1, 1), bias=False)
        )
      )
    )
    (down2): UnetDownsample(
      (body): Sequential(
        (0): Conv2d(128, 64, kernel_size=(3, 3), stride=(1, 1), padding=(1, 1), bias=False)
        (1): PixelUnshuffle(downscale_factor=2)
      )
    )
    (latent_block): Sequential(
      (0): CRB_Layer(
        (norm1): LayerNorm2d()
        (nla): NonLocalSparseAttention(
          (conv_match): BasicBlock(
            (0): Conv2d(256, 64, kernel_size=(3, 3), stride=(1, 1), padding=(1, 1))
          )
          (conv_assembly): BasicBlock(
            (0): Conv2d(256, 256, kernel_size=(1, 1), stride=(1, 1))
          )
        )
        (conv_local): Sequential(
          (0): Conv2d(256, 256, kernel_size=(3, 3), stride=(1, 1), padding=(1, 1), groups=256)
          (1): GELU()
          (2): Conv2d(256, 256, kernel_size=(3, 3), stride=(1, 1), padding=(1, 1), groups=256)
        )
        (conv1_last): Conv2d(512, 256, kernel_size=(1, 1), stride=(1, 1))
        (ca): CALayer(
          (body): Sequential(
            (0): Conv2d(256, 16, kernel_size=(1, 1), stride=(1, 1))
            (1): GELU()
            (2): Conv2d(16, 256, kernel_size=(1, 1), stride=(1, 1))
            (3): Sigmoid()
          )
          (avg): AdaptiveAvgPool2d(output_size=1)
        )
        (norm2): LayerNorm2d()
        (gdfn): FeedForward(
          (project_in): Conv2d(256, 1360, kernel_size=(1, 1), stride=(1, 1), bias=False)
          (dwconv): Conv2d(1360, 1360, kernel_size=(3, 3), stride=(1, 1), padding=(1, 1), groups=1360, bias=False)
          (project_out): Conv2d(680, 256, kernel_size=(1, 1), stride=(1, 1), bias=False)
        )
      )
      (1): CRB_Layer(
        (norm1): LayerNorm2d()
        (nla): NonLocalSparseAttention(
          (conv_match): BasicBlock(
            (0): Conv2d(256, 64, kernel_size=(3, 3), stride=(1, 1), padding=(1, 1))
          )
          (conv_assembly): BasicBlock(
            (0): Conv2d(256, 256, kernel_size=(1, 1), stride=(1, 1))
          )
        )
        (conv_local): Sequential(
          (0): Conv2d(256, 256, kernel_size=(3, 3), stride=(1, 1), padding=(1, 1), groups=256)
          (1): GELU()
          (2): Conv2d(256, 256, kernel_size=(3, 3), stride=(1, 1), padding=(1, 1), groups=256)
        )
        (conv1_last): Conv2d(512, 256, kernel_size=(1, 1), stride=(1, 1))
        (ca): CALayer(
          (body): Sequential(
            (0): Conv2d(256, 16, kernel_size=(1, 1), stride=(1, 1))
            (1): GELU()
            (2): Conv2d(16, 256, kernel_size=(1, 1), stride=(1, 1))
            (3): Sigmoid()
          )
          (avg): AdaptiveAvgPool2d(output_size=1)
        )
        (norm2): LayerNorm2d()
        (gdfn): FeedForward(
          (project_in): Conv2d(256, 1360, kernel_size=(1, 1), stride=(1, 1), bias=False)
          (dwconv): Conv2d(1360, 1360, kernel_size=(3, 3), stride=(1, 1), padding=(1, 1), groups=1360, bias=False)
          (project_out): Conv2d(680, 256, kernel_size=(1, 1), stride=(1, 1), bias=False)
        )
      )
      (2): CRB_Layer(
        (norm1): LayerNorm2d()
        (nla): NonLocalSparseAttention(
          (conv_match): BasicBlock(
            (0): Conv2d(256, 64, kernel_size=(3, 3), stride=(1, 1), padding=(1, 1))
          )
          (conv_assembly): BasicBlock(
            (0): Conv2d(256, 256, kernel_size=(1, 1), stride=(1, 1))
          )
        )
        (conv_local): Sequential(
          (0): Conv2d(256, 256, kernel_size=(3, 3), stride=(1, 1), padding=(1, 1), groups=256)
          (1): GELU()
          (2): Conv2d(256, 256, kernel_size=(3, 3), stride=(1, 1), padding=(1, 1), groups=256)
        )
        (conv1_last): Conv2d(512, 256, kernel_size=(1, 1), stride=(1, 1))
        (ca): CALayer(
          (body): Sequential(
            (0): Conv2d(256, 16, kernel_size=(1, 1), stride=(1, 1))
            (1): GELU()
            (2): Conv2d(16, 256, kernel_size=(1, 1), stride=(1, 1))
            (3): Sigmoid()
          )
          (avg): AdaptiveAvgPool2d(output_size=1)
        )
        (norm2): LayerNorm2d()
        (gdfn): FeedForward(
          (project_in): Conv2d(256, 1360, kernel_size=(1, 1), stride=(1, 1), bias=False)
          (dwconv): Conv2d(1360, 1360, kernel_size=(3, 3), stride=(1, 1), padding=(1, 1), groups=1360, bias=False)
          (project_out): Conv2d(680, 256, kernel_size=(1, 1), stride=(1, 1), bias=False)
        )
      )
      (3): CRB_Layer(
        (norm1): LayerNorm2d()
        (nla): NonLocalSparseAttention(
          (conv_match): BasicBlock(
            (0): Conv2d(256, 64, kernel_size=(3, 3), stride=(1, 1), padding=(1, 1))
          )
          (conv_assembly): BasicBlock(
            (0): Conv2d(256, 256, kernel_size=(1, 1), stride=(1, 1))
          )
        )
        (conv_local): Sequential(
          (0): Conv2d(256, 256, kernel_size=(3, 3), stride=(1, 1), padding=(1, 1), groups=256)
          (1): GELU()
          (2): Conv2d(256, 256, kernel_size=(3, 3), stride=(1, 1), padding=(1, 1), groups=256)
        )
        (conv1_last): Conv2d(512, 256, kernel_size=(1, 1), stride=(1, 1))
        (ca): CALayer(
          (body): Sequential(
            (0): Conv2d(256, 16, kernel_size=(1, 1), stride=(1, 1))
            (1): GELU()
            (2): Conv2d(16, 256, kernel_size=(1, 1), stride=(1, 1))
            (3): Sigmoid()
          )
          (avg): AdaptiveAvgPool2d(output_size=1)
        )
        (norm2): LayerNorm2d()
        (gdfn): FeedForward(
          (project_in): Conv2d(256, 1360, kernel_size=(1, 1), stride=(1, 1), bias=False)
          (dwconv): Conv2d(1360, 1360, kernel_size=(3, 3), stride=(1, 1), padding=(1, 1), groups=1360, bias=False)
          (project_out): Conv2d(680, 256, kernel_size=(1, 1), stride=(1, 1), bias=False)
        )
      )
      (4): CRB_Layer(
        (norm1): LayerNorm2d()
        (nla): NonLocalSparseAttention(
          (conv_match): BasicBlock(
            (0): Conv2d(256, 64, kernel_size=(3, 3), stride=(1, 1), padding=(1, 1))
          )
          (conv_assembly): BasicBlock(
            (0): Conv2d(256, 256, kernel_size=(1, 1), stride=(1, 1))
          )
        )
        (conv_local): Sequential(
          (0): Conv2d(256, 256, kernel_size=(3, 3), stride=(1, 1), padding=(1, 1), groups=256)
          (1): GELU()
          (2): Conv2d(256, 256, kernel_size=(3, 3), stride=(1, 1), padding=(1, 1), groups=256)
        )
        (conv1_last): Conv2d(512, 256, kernel_size=(1, 1), stride=(1, 1))
        (ca): CALayer(
          (body): Sequential(
            (0): Conv2d(256, 16, kernel_size=(1, 1), stride=(1, 1))
            (1): GELU()
            (2): Conv2d(16, 256, kernel_size=(1, 1), stride=(1, 1))
            (3): Sigmoid()
          )
          (avg): AdaptiveAvgPool2d(output_size=1)
        )
        (norm2): LayerNorm2d()
        (gdfn): FeedForward(
          (project_in): Conv2d(256, 1360, kernel_size=(1, 1), stride=(1, 1), bias=False)
          (dwconv): Conv2d(1360, 1360, kernel_size=(3, 3), stride=(1, 1), padding=(1, 1), groups=1360, bias=False)
          (project_out): Conv2d(680, 256, kernel_size=(1, 1), stride=(1, 1), bias=False)
        )
      )
      (5): CRB_Layer(
        (norm1): LayerNorm2d()
        (nla): NonLocalSparseAttention(
          (conv_match): BasicBlock(
            (0): Conv2d(256, 64, kernel_size=(3, 3), stride=(1, 1), padding=(1, 1))
          )
          (conv_assembly): BasicBlock(
            (0): Conv2d(256, 256, kernel_size=(1, 1), stride=(1, 1))
          )
        )
        (conv_local): Sequential(
          (0): Conv2d(256, 256, kernel_size=(3, 3), stride=(1, 1), padding=(1, 1), groups=256)
          (1): GELU()
          (2): Conv2d(256, 256, kernel_size=(3, 3), stride=(1, 1), padding=(1, 1), groups=256)
        )
        (conv1_last): Conv2d(512, 256, kernel_size=(1, 1), stride=(1, 1))
        (ca): CALayer(
          (body): Sequential(
            (0): Conv2d(256, 16, kernel_size=(1, 1), stride=(1, 1))
            (1): GELU()
            (2): Conv2d(16, 256, kernel_size=(1, 1), stride=(1, 1))
            (3): Sigmoid()
          )
          (avg): AdaptiveAvgPool2d(output_size=1)
        )
        (norm2): LayerNorm2d()
        (gdfn): FeedForward(
          (project_in): Conv2d(256, 1360, kernel_size=(1, 1), stride=(1, 1), bias=False)
          (dwconv): Conv2d(1360, 1360, kernel_size=(3, 3), stride=(1, 1), padding=(1, 1), groups=1360, bias=False)
          (project_out): Conv2d(680, 256, kernel_size=(1, 1), stride=(1, 1), bias=False)
        )
      )
      (6): CRB_Layer(
        (norm1): LayerNorm2d()
        (nla): NonLocalSparseAttention(
          (conv_match): BasicBlock(
            (0): Conv2d(256, 64, kernel_size=(3, 3), stride=(1, 1), padding=(1, 1))
          )
          (conv_assembly): BasicBlock(
            (0): Conv2d(256, 256, kernel_size=(1, 1), stride=(1, 1))
          )
        )
        (conv_local): Sequential(
          (0): Conv2d(256, 256, kernel_size=(3, 3), stride=(1, 1), padding=(1, 1), groups=256)
          (1): GELU()
          (2): Conv2d(256, 256, kernel_size=(3, 3), stride=(1, 1), padding=(1, 1), groups=256)
        )
        (conv1_last): Conv2d(512, 256, kernel_size=(1, 1), stride=(1, 1))
        (ca): CALayer(
          (body): Sequential(
            (0): Conv2d(256, 16, kernel_size=(1, 1), stride=(1, 1))
            (1): GELU()
            (2): Conv2d(16, 256, kernel_size=(1, 1), stride=(1, 1))
            (3): Sigmoid()
          )
          (avg): AdaptiveAvgPool2d(output_size=1)
        )
        (norm2): LayerNorm2d()
        (gdfn): FeedForward(
          (project_in): Conv2d(256, 1360, kernel_size=(1, 1), stride=(1, 1), bias=False)
          (dwconv): Conv2d(1360, 1360, kernel_size=(3, 3), stride=(1, 1), padding=(1, 1), groups=1360, bias=False)
          (project_out): Conv2d(680, 256, kernel_size=(1, 1), stride=(1, 1), bias=False)
        )
      )
      (7): CRB_Layer(
        (norm1): LayerNorm2d()
        (nla): NonLocalSparseAttention(
          (conv_match): BasicBlock(
            (0): Conv2d(256, 64, kernel_size=(3, 3), stride=(1, 1), padding=(1, 1))
          )
          (conv_assembly): BasicBlock(
            (0): Conv2d(256, 256, kernel_size=(1, 1), stride=(1, 1))
          )
        )
        (conv_local): Sequential(
          (0): Conv2d(256, 256, kernel_size=(3, 3), stride=(1, 1), padding=(1, 1), groups=256)
          (1): GELU()
          (2): Conv2d(256, 256, kernel_size=(3, 3), stride=(1, 1), padding=(1, 1), groups=256)
        )
        (conv1_last): Conv2d(512, 256, kernel_size=(1, 1), stride=(1, 1))
        (ca): CALayer(
          (body): Sequential(
            (0): Conv2d(256, 16, kernel_size=(1, 1), stride=(1, 1))
            (1): GELU()
            (2): Conv2d(16, 256, kernel_size=(1, 1), stride=(1, 1))
            (3): Sigmoid()
          )
          (avg): AdaptiveAvgPool2d(output_size=1)
        )
        (norm2): LayerNorm2d()
        (gdfn): FeedForward(
          (project_in): Conv2d(256, 1360, kernel_size=(1, 1), stride=(1, 1), bias=False)
          (dwconv): Conv2d(1360, 1360, kernel_size=(3, 3), stride=(1, 1), padding=(1, 1), groups=1360, bias=False)
          (project_out): Conv2d(680, 256, kernel_size=(1, 1), stride=(1, 1), bias=False)
        )
      )
      (8): CRB_Layer(
        (norm1): LayerNorm2d()
        (nla): NonLocalSparseAttention(
          (conv_match): BasicBlock(
            (0): Conv2d(256, 64, kernel_size=(3, 3), stride=(1, 1), padding=(1, 1))
          )
          (conv_assembly): BasicBlock(
            (0): Conv2d(256, 256, kernel_size=(1, 1), stride=(1, 1))
          )
        )
        (conv_local): Sequential(
          (0): Conv2d(256, 256, kernel_size=(3, 3), stride=(1, 1), padding=(1, 1), groups=256)
          (1): GELU()
          (2): Conv2d(256, 256, kernel_size=(3, 3), stride=(1, 1), padding=(1, 1), groups=256)
        )
        (conv1_last): Conv2d(512, 256, kernel_size=(1, 1), stride=(1, 1))
        (ca): CALayer(
          (body): Sequential(
            (0): Conv2d(256, 16, kernel_size=(1, 1), stride=(1, 1))
            (1): GELU()
            (2): Conv2d(16, 256, kernel_size=(1, 1), stride=(1, 1))
            (3): Sigmoid()
          )
          (avg): AdaptiveAvgPool2d(output_size=1)
        )
        (norm2): LayerNorm2d()
        (gdfn): FeedForward(
          (project_in): Conv2d(256, 1360, kernel_size=(1, 1), stride=(1, 1), bias=False)
          (dwconv): Conv2d(1360, 1360, kernel_size=(3, 3), stride=(1, 1), padding=(1, 1), groups=1360, bias=False)
          (project_out): Conv2d(680, 256, kernel_size=(1, 1), stride=(1, 1), bias=False)
        )
      )
      (9): CRB_Layer(
        (norm1): LayerNorm2d()
        (nla): NonLocalSparseAttention(
          (conv_match): BasicBlock(
            (0): Conv2d(256, 64, kernel_size=(3, 3), stride=(1, 1), padding=(1, 1))
          )
          (conv_assembly): BasicBlock(
            (0): Conv2d(256, 256, kernel_size=(1, 1), stride=(1, 1))
          )
        )
        (conv_local): Sequential(
          (0): Conv2d(256, 256, kernel_size=(3, 3), stride=(1, 1), padding=(1, 1), groups=256)
          (1): GELU()
          (2): Conv2d(256, 256, kernel_size=(3, 3), stride=(1, 1), padding=(1, 1), groups=256)
        )
        (conv1_last): Conv2d(512, 256, kernel_size=(1, 1), stride=(1, 1))
        (ca): CALayer(
          (body): Sequential(
            (0): Conv2d(256, 16, kernel_size=(1, 1), stride=(1, 1))
            (1): GELU()
            (2): Conv2d(16, 256, kernel_size=(1, 1), stride=(1, 1))
            (3): Sigmoid()
          )
          (avg): AdaptiveAvgPool2d(output_size=1)
        )
        (norm2): LayerNorm2d()
        (gdfn): FeedForward(
          (project_in): Conv2d(256, 1360, kernel_size=(1, 1), stride=(1, 1), bias=False)
          (dwconv): Conv2d(1360, 1360, kernel_size=(3, 3), stride=(1, 1), padding=(1, 1), groups=1360, bias=False)
          (project_out): Conv2d(680, 256, kernel_size=(1, 1), stride=(1, 1), bias=False)
        )
      )
    )
    (up1): UnetUpsample(
      (body): Sequential(
        (0): Conv2d(256, 512, kernel_size=(3, 3), stride=(1, 1), padding=(1, 1), bias=False)
        (1): PixelShuffle(upscale_factor=2)
      )
    )
    (conv1x1_1): Conv2d(256, 128, kernel_size=(1, 1), stride=(1, 1))
    (decoder_block1): Sequential(
      (0): CRB_Layer(
        (norm1): LayerNorm2d()
        (nla): NonLocalSparseAttention(
          (conv_match): BasicBlock(
            (0): Conv2d(128, 32, kernel_size=(3, 3), stride=(1, 1), padding=(1, 1))
          )
          (conv_assembly): BasicBlock(
            (0): Conv2d(128, 128, kernel_size=(1, 1), stride=(1, 1))
          )
        )
        (conv_local): Sequential(
          (0): Conv2d(128, 128, kernel_size=(3, 3), stride=(1, 1), padding=(1, 1), groups=128)
          (1): GELU()
          (2): Conv2d(128, 128, kernel_size=(3, 3), stride=(1, 1), padding=(1, 1), groups=128)
        )
        (conv1_last): Conv2d(256, 128, kernel_size=(1, 1), stride=(1, 1))
        (ca): CALayer(
          (body): Sequential(
            (0): Conv2d(128, 8, kernel_size=(1, 1), stride=(1, 1))
            (1): GELU()
            (2): Conv2d(8, 128, kernel_size=(1, 1), stride=(1, 1))
            (3): Sigmoid()
          )
          (avg): AdaptiveAvgPool2d(output_size=1)
        )
        (norm2): LayerNorm2d()
        (gdfn): FeedForward(
          (project_in): Conv2d(128, 680, kernel_size=(1, 1), stride=(1, 1), bias=False)
          (dwconv): Conv2d(680, 680, kernel_size=(3, 3), stride=(1, 1), padding=(1, 1), groups=680, bias=False)
          (project_out): Conv2d(340, 128, kernel_size=(1, 1), stride=(1, 1), bias=False)
        )
      )
      (1): CRB_Layer(
        (norm1): LayerNorm2d()
        (nla): NonLocalSparseAttention(
          (conv_match): BasicBlock(
            (0): Conv2d(128, 32, kernel_size=(3, 3), stride=(1, 1), padding=(1, 1))
          )
          (conv_assembly): BasicBlock(
            (0): Conv2d(128, 128, kernel_size=(1, 1), stride=(1, 1))
          )
        )
        (conv_local): Sequential(
          (0): Conv2d(128, 128, kernel_size=(3, 3), stride=(1, 1), padding=(1, 1), groups=128)
          (1): GELU()
          (2): Conv2d(128, 128, kernel_size=(3, 3), stride=(1, 1), padding=(1, 1), groups=128)
        )
        (conv1_last): Conv2d(256, 128, kernel_size=(1, 1), stride=(1, 1))
        (ca): CALayer(
          (body): Sequential(
            (0): Conv2d(128, 8, kernel_size=(1, 1), stride=(1, 1))
            (1): GELU()
            (2): Conv2d(8, 128, kernel_size=(1, 1), stride=(1, 1))
            (3): Sigmoid()
          )
          (avg): AdaptiveAvgPool2d(output_size=1)
        )
        (norm2): LayerNorm2d()
        (gdfn): FeedForward(
          (project_in): Conv2d(128, 680, kernel_size=(1, 1), stride=(1, 1), bias=False)
          (dwconv): Conv2d(680, 680, kernel_size=(3, 3), stride=(1, 1), padding=(1, 1), groups=680, bias=False)
          (project_out): Conv2d(340, 128, kernel_size=(1, 1), stride=(1, 1), bias=False)
        )
      )
      (2): CRB_Layer(
        (norm1): LayerNorm2d()
        (nla): NonLocalSparseAttention(
          (conv_match): BasicBlock(
            (0): Conv2d(128, 32, kernel_size=(3, 3), stride=(1, 1), padding=(1, 1))
          )
          (conv_assembly): BasicBlock(
            (0): Conv2d(128, 128, kernel_size=(1, 1), stride=(1, 1))
          )
        )
        (conv_local): Sequential(
          (0): Conv2d(128, 128, kernel_size=(3, 3), stride=(1, 1), padding=(1, 1), groups=128)
          (1): GELU()
          (2): Conv2d(128, 128, kernel_size=(3, 3), stride=(1, 1), padding=(1, 1), groups=128)
        )
        (conv1_last): Conv2d(256, 128, kernel_size=(1, 1), stride=(1, 1))
        (ca): CALayer(
          (body): Sequential(
            (0): Conv2d(128, 8, kernel_size=(1, 1), stride=(1, 1))
            (1): GELU()
            (2): Conv2d(8, 128, kernel_size=(1, 1), stride=(1, 1))
            (3): Sigmoid()
          )
          (avg): AdaptiveAvgPool2d(output_size=1)
        )
        (norm2): LayerNorm2d()
        (gdfn): FeedForward(
          (project_in): Conv2d(128, 680, kernel_size=(1, 1), stride=(1, 1), bias=False)
          (dwconv): Conv2d(680, 680, kernel_size=(3, 3), stride=(1, 1), padding=(1, 1), groups=680, bias=False)
          (project_out): Conv2d(340, 128, kernel_size=(1, 1), stride=(1, 1), bias=False)
        )
      )
      (3): CRB_Layer(
        (norm1): LayerNorm2d()
        (nla): NonLocalSparseAttention(
          (conv_match): BasicBlock(
            (0): Conv2d(128, 32, kernel_size=(3, 3), stride=(1, 1), padding=(1, 1))
          )
          (conv_assembly): BasicBlock(
            (0): Conv2d(128, 128, kernel_size=(1, 1), stride=(1, 1))
          )
        )
        (conv_local): Sequential(
          (0): Conv2d(128, 128, kernel_size=(3, 3), stride=(1, 1), padding=(1, 1), groups=128)
          (1): GELU()
          (2): Conv2d(128, 128, kernel_size=(3, 3), stride=(1, 1), padding=(1, 1), groups=128)
        )
        (conv1_last): Conv2d(256, 128, kernel_size=(1, 1), stride=(1, 1))
        (ca): CALayer(
          (body): Sequential(
            (0): Conv2d(128, 8, kernel_size=(1, 1), stride=(1, 1))
            (1): GELU()
            (2): Conv2d(8, 128, kernel_size=(1, 1), stride=(1, 1))
            (3): Sigmoid()
          )
          (avg): AdaptiveAvgPool2d(output_size=1)
        )
        (norm2): LayerNorm2d()
        (gdfn): FeedForward(
          (project_in): Conv2d(128, 680, kernel_size=(1, 1), stride=(1, 1), bias=False)
          (dwconv): Conv2d(680, 680, kernel_size=(3, 3), stride=(1, 1), padding=(1, 1), groups=680, bias=False)
          (project_out): Conv2d(340, 128, kernel_size=(1, 1), stride=(1, 1), bias=False)
        )
      )
      (4): CRB_Layer(
        (norm1): LayerNorm2d()
        (nla): NonLocalSparseAttention(
          (conv_match): BasicBlock(
            (0): Conv2d(128, 32, kernel_size=(3, 3), stride=(1, 1), padding=(1, 1))
          )
          (conv_assembly): BasicBlock(
            (0): Conv2d(128, 128, kernel_size=(1, 1), stride=(1, 1))
          )
        )
        (conv_local): Sequential(
          (0): Conv2d(128, 128, kernel_size=(3, 3), stride=(1, 1), padding=(1, 1), groups=128)
          (1): GELU()
          (2): Conv2d(128, 128, kernel_size=(3, 3), stride=(1, 1), padding=(1, 1), groups=128)
        )
        (conv1_last): Conv2d(256, 128, kernel_size=(1, 1), stride=(1, 1))
        (ca): CALayer(
          (body): Sequential(
            (0): Conv2d(128, 8, kernel_size=(1, 1), stride=(1, 1))
            (1): GELU()
            (2): Conv2d(8, 128, kernel_size=(1, 1), stride=(1, 1))
            (3): Sigmoid()
          )
          (avg): AdaptiveAvgPool2d(output_size=1)
        )
        (norm2): LayerNorm2d()
        (gdfn): FeedForward(
          (project_in): Conv2d(128, 680, kernel_size=(1, 1), stride=(1, 1), bias=False)
          (dwconv): Conv2d(680, 680, kernel_size=(3, 3), stride=(1, 1), padding=(1, 1), groups=680, bias=False)
          (project_out): Conv2d(340, 128, kernel_size=(1, 1), stride=(1, 1), bias=False)
        )
      )
      (5): CRB_Layer(
        (norm1): LayerNorm2d()
        (nla): NonLocalSparseAttention(
          (conv_match): BasicBlock(
            (0): Conv2d(128, 32, kernel_size=(3, 3), stride=(1, 1), padding=(1, 1))
          )
          (conv_assembly): BasicBlock(
            (0): Conv2d(128, 128, kernel_size=(1, 1), stride=(1, 1))
          )
        )
        (conv_local): Sequential(
          (0): Conv2d(128, 128, kernel_size=(3, 3), stride=(1, 1), padding=(1, 1), groups=128)
          (1): GELU()
          (2): Conv2d(128, 128, kernel_size=(3, 3), stride=(1, 1), padding=(1, 1), groups=128)
        )
        (conv1_last): Conv2d(256, 128, kernel_size=(1, 1), stride=(1, 1))
        (ca): CALayer(
          (body): Sequential(
            (0): Conv2d(128, 8, kernel_size=(1, 1), stride=(1, 1))
            (1): GELU()
            (2): Conv2d(8, 128, kernel_size=(1, 1), stride=(1, 1))
            (3): Sigmoid()
          )
          (avg): AdaptiveAvgPool2d(output_size=1)
        )
        (norm2): LayerNorm2d()
        (gdfn): FeedForward(
          (project_in): Conv2d(128, 680, kernel_size=(1, 1), stride=(1, 1), bias=False)
          (dwconv): Conv2d(680, 680, kernel_size=(3, 3), stride=(1, 1), padding=(1, 1), groups=680, bias=False)
          (project_out): Conv2d(340, 128, kernel_size=(1, 1), stride=(1, 1), bias=False)
        )
      )
    )
    (up2): UnetUpsample(
      (body): Sequential(
        (0): Conv2d(128, 256, kernel_size=(3, 3), stride=(1, 1), padding=(1, 1), bias=False)
        (1): PixelShuffle(upscale_factor=2)
      )
    )
    (decoder_block2): Sequential(
      (0): CRB_Layer(
        (norm1): LayerNorm2d()
        (nla): NonLocalSparseAttention(
          (conv_match): BasicBlock(
            (0): Conv2d(128, 32, kernel_size=(3, 3), stride=(1, 1), padding=(1, 1))
          )
          (conv_assembly): BasicBlock(
            (0): Conv2d(128, 128, kernel_size=(1, 1), stride=(1, 1))
          )
        )
        (conv_local): Sequential(
          (0): Conv2d(128, 128, kernel_size=(3, 3), stride=(1, 1), padding=(1, 1), groups=128)
          (1): GELU()
          (2): Conv2d(128, 128, kernel_size=(3, 3), stride=(1, 1), padding=(1, 1), groups=128)
        )
        (conv1_last): Conv2d(256, 128, kernel_size=(1, 1), stride=(1, 1))
        (ca): CALayer(
          (body): Sequential(
            (0): Conv2d(128, 8, kernel_size=(1, 1), stride=(1, 1))
            (1): GELU()
            (2): Conv2d(8, 128, kernel_size=(1, 1), stride=(1, 1))
            (3): Sigmoid()
          )
          (avg): AdaptiveAvgPool2d(output_size=1)
        )
        (norm2): LayerNorm2d()
        (gdfn): FeedForward(
          (project_in): Conv2d(128, 680, kernel_size=(1, 1), stride=(1, 1), bias=False)
          (dwconv): Conv2d(680, 680, kernel_size=(3, 3), stride=(1, 1), padding=(1, 1), groups=680, bias=False)
          (project_out): Conv2d(340, 128, kernel_size=(1, 1), stride=(1, 1), bias=False)
        )
      )
      (1): CRB_Layer(
        (norm1): LayerNorm2d()
        (nla): NonLocalSparseAttention(
          (conv_match): BasicBlock(
            (0): Conv2d(128, 32, kernel_size=(3, 3), stride=(1, 1), padding=(1, 1))
          )
          (conv_assembly): BasicBlock(
            (0): Conv2d(128, 128, kernel_size=(1, 1), stride=(1, 1))
          )
        )
        (conv_local): Sequential(
          (0): Conv2d(128, 128, kernel_size=(3, 3), stride=(1, 1), padding=(1, 1), groups=128)
          (1): GELU()
          (2): Conv2d(128, 128, kernel_size=(3, 3), stride=(1, 1), padding=(1, 1), groups=128)
        )
        (conv1_last): Conv2d(256, 128, kernel_size=(1, 1), stride=(1, 1))
        (ca): CALayer(
          (body): Sequential(
            (0): Conv2d(128, 8, kernel_size=(1, 1), stride=(1, 1))
            (1): GELU()
            (2): Conv2d(8, 128, kernel_size=(1, 1), stride=(1, 1))
            (3): Sigmoid()
          )
          (avg): AdaptiveAvgPool2d(output_size=1)
        )
        (norm2): LayerNorm2d()
        (gdfn): FeedForward(
          (project_in): Conv2d(128, 680, kernel_size=(1, 1), stride=(1, 1), bias=False)
          (dwconv): Conv2d(680, 680, kernel_size=(3, 3), stride=(1, 1), padding=(1, 1), groups=680, bias=False)
          (project_out): Conv2d(340, 128, kernel_size=(1, 1), stride=(1, 1), bias=False)
        )
      )
      (2): CRB_Layer(
        (norm1): LayerNorm2d()
        (nla): NonLocalSparseAttention(
          (conv_match): BasicBlock(
            (0): Conv2d(128, 32, kernel_size=(3, 3), stride=(1, 1), padding=(1, 1))
          )
          (conv_assembly): BasicBlock(
            (0): Conv2d(128, 128, kernel_size=(1, 1), stride=(1, 1))
          )
        )
        (conv_local): Sequential(
          (0): Conv2d(128, 128, kernel_size=(3, 3), stride=(1, 1), padding=(1, 1), groups=128)
          (1): GELU()
          (2): Conv2d(128, 128, kernel_size=(3, 3), stride=(1, 1), padding=(1, 1), groups=128)
        )
        (conv1_last): Conv2d(256, 128, kernel_size=(1, 1), stride=(1, 1))
        (ca): CALayer(
          (body): Sequential(
            (0): Conv2d(128, 8, kernel_size=(1, 1), stride=(1, 1))
            (1): GELU()
            (2): Conv2d(8, 128, kernel_size=(1, 1), stride=(1, 1))
            (3): Sigmoid()
          )
          (avg): AdaptiveAvgPool2d(output_size=1)
        )
        (norm2): LayerNorm2d()
        (gdfn): FeedForward(
          (project_in): Conv2d(128, 680, kernel_size=(1, 1), stride=(1, 1), bias=False)
          (dwconv): Conv2d(680, 680, kernel_size=(3, 3), stride=(1, 1), padding=(1, 1), groups=680, bias=False)
          (project_out): Conv2d(340, 128, kernel_size=(1, 1), stride=(1, 1), bias=False)
        )
      )
      (3): CRB_Layer(
        (norm1): LayerNorm2d()
        (nla): NonLocalSparseAttention(
          (conv_match): BasicBlock(
            (0): Conv2d(128, 32, kernel_size=(3, 3), stride=(1, 1), padding=(1, 1))
          )
          (conv_assembly): BasicBlock(
            (0): Conv2d(128, 128, kernel_size=(1, 1), stride=(1, 1))
          )
        )
        (conv_local): Sequential(
          (0): Conv2d(128, 128, kernel_size=(3, 3), stride=(1, 1), padding=(1, 1), groups=128)
          (1): GELU()
          (2): Conv2d(128, 128, kernel_size=(3, 3), stride=(1, 1), padding=(1, 1), groups=128)
        )
        (conv1_last): Conv2d(256, 128, kernel_size=(1, 1), stride=(1, 1))
        (ca): CALayer(
          (body): Sequential(
            (0): Conv2d(128, 8, kernel_size=(1, 1), stride=(1, 1))
            (1): GELU()
            (2): Conv2d(8, 128, kernel_size=(1, 1), stride=(1, 1))
            (3): Sigmoid()
          )
          (avg): AdaptiveAvgPool2d(output_size=1)
        )
        (norm2): LayerNorm2d()
        (gdfn): FeedForward(
          (project_in): Conv2d(128, 680, kernel_size=(1, 1), stride=(1, 1), bias=False)
          (dwconv): Conv2d(680, 680, kernel_size=(3, 3), stride=(1, 1), padding=(1, 1), groups=680, bias=False)
          (project_out): Conv2d(340, 128, kernel_size=(1, 1), stride=(1, 1), bias=False)
        )
      )
      (4): CRB_Layer(
        (norm1): LayerNorm2d()
        (nla): NonLocalSparseAttention(
          (conv_match): BasicBlock(
            (0): Conv2d(128, 32, kernel_size=(3, 3), stride=(1, 1), padding=(1, 1))
          )
          (conv_assembly): BasicBlock(
            (0): Conv2d(128, 128, kernel_size=(1, 1), stride=(1, 1))
          )
        )
        (conv_local): Sequential(
          (0): Conv2d(128, 128, kernel_size=(3, 3), stride=(1, 1), padding=(1, 1), groups=128)
          (1): GELU()
          (2): Conv2d(128, 128, kernel_size=(3, 3), stride=(1, 1), padding=(1, 1), groups=128)
        )
        (conv1_last): Conv2d(256, 128, kernel_size=(1, 1), stride=(1, 1))
        (ca): CALayer(
          (body): Sequential(
            (0): Conv2d(128, 8, kernel_size=(1, 1), stride=(1, 1))
            (1): GELU()
            (2): Conv2d(8, 128, kernel_size=(1, 1), stride=(1, 1))
            (3): Sigmoid()
          )
          (avg): AdaptiveAvgPool2d(output_size=1)
        )
        (norm2): LayerNorm2d()
        (gdfn): FeedForward(
          (project_in): Conv2d(128, 680, kernel_size=(1, 1), stride=(1, 1), bias=False)
          (dwconv): Conv2d(680, 680, kernel_size=(3, 3), stride=(1, 1), padding=(1, 1), groups=680, bias=False)
          (project_out): Conv2d(340, 128, kernel_size=(1, 1), stride=(1, 1), bias=False)
        )
      )
      (5): CRB_Layer(
        (norm1): LayerNorm2d()
        (nla): NonLocalSparseAttention(
          (conv_match): BasicBlock(
            (0): Conv2d(128, 32, kernel_size=(3, 3), stride=(1, 1), padding=(1, 1))
          )
          (conv_assembly): BasicBlock(
            (0): Conv2d(128, 128, kernel_size=(1, 1), stride=(1, 1))
          )
        )
        (conv_local): Sequential(
          (0): Conv2d(128, 128, kernel_size=(3, 3), stride=(1, 1), padding=(1, 1), groups=128)
          (1): GELU()
          (2): Conv2d(128, 128, kernel_size=(3, 3), stride=(1, 1), padding=(1, 1), groups=128)
        )
        (conv1_last): Conv2d(256, 128, kernel_size=(1, 1), stride=(1, 1))
        (ca): CALayer(
          (body): Sequential(
            (0): Conv2d(128, 8, kernel_size=(1, 1), stride=(1, 1))
            (1): GELU()
            (2): Conv2d(8, 128, kernel_size=(1, 1), stride=(1, 1))
            (3): Sigmoid()
          )
          (avg): AdaptiveAvgPool2d(output_size=1)
        )
        (norm2): LayerNorm2d()
        (gdfn): FeedForward(
          (project_in): Conv2d(128, 680, kernel_size=(1, 1), stride=(1, 1), bias=False)
          (dwconv): Conv2d(680, 680, kernel_size=(3, 3), stride=(1, 1), padding=(1, 1), groups=680, bias=False)
          (project_out): Conv2d(340, 128, kernel_size=(1, 1), stride=(1, 1), bias=False)
        )
      )
      (6): CRB_Layer(
        (norm1): LayerNorm2d()
        (nla): NonLocalSparseAttention(
          (conv_match): BasicBlock(
            (0): Conv2d(128, 32, kernel_size=(3, 3), stride=(1, 1), padding=(1, 1))
          )
          (conv_assembly): BasicBlock(
            (0): Conv2d(128, 128, kernel_size=(1, 1), stride=(1, 1))
          )
        )
        (conv_local): Sequential(
          (0): Conv2d(128, 128, kernel_size=(3, 3), stride=(1, 1), padding=(1, 1), groups=128)
          (1): GELU()
          (2): Conv2d(128, 128, kernel_size=(3, 3), stride=(1, 1), padding=(1, 1), groups=128)
        )
        (conv1_last): Conv2d(256, 128, kernel_size=(1, 1), stride=(1, 1))
        (ca): CALayer(
          (body): Sequential(
            (0): Conv2d(128, 8, kernel_size=(1, 1), stride=(1, 1))
            (1): GELU()
            (2): Conv2d(8, 128, kernel_size=(1, 1), stride=(1, 1))
            (3): Sigmoid()
          )
          (avg): AdaptiveAvgPool2d(output_size=1)
        )
        (norm2): LayerNorm2d()
        (gdfn): FeedForward(
          (project_in): Conv2d(128, 680, kernel_size=(1, 1), stride=(1, 1), bias=False)
          (dwconv): Conv2d(680, 680, kernel_size=(3, 3), stride=(1, 1), padding=(1, 1), groups=680, bias=False)
          (project_out): Conv2d(340, 128, kernel_size=(1, 1), stride=(1, 1), bias=False)
        )
      )
      (7): CRB_Layer(
        (norm1): LayerNorm2d()
        (nla): NonLocalSparseAttention(
          (conv_match): BasicBlock(
            (0): Conv2d(128, 32, kernel_size=(3, 3), stride=(1, 1), padding=(1, 1))
          )
          (conv_assembly): BasicBlock(
            (0): Conv2d(128, 128, kernel_size=(1, 1), stride=(1, 1))
          )
        )
        (conv_local): Sequential(
          (0): Conv2d(128, 128, kernel_size=(3, 3), stride=(1, 1), padding=(1, 1), groups=128)
          (1): GELU()
          (2): Conv2d(128, 128, kernel_size=(3, 3), stride=(1, 1), padding=(1, 1), groups=128)
        )
        (conv1_last): Conv2d(256, 128, kernel_size=(1, 1), stride=(1, 1))
        (ca): CALayer(
          (body): Sequential(
            (0): Conv2d(128, 8, kernel_size=(1, 1), stride=(1, 1))
            (1): GELU()
            (2): Conv2d(8, 128, kernel_size=(1, 1), stride=(1, 1))
            (3): Sigmoid()
          )
          (avg): AdaptiveAvgPool2d(output_size=1)
        )
        (norm2): LayerNorm2d()
        (gdfn): FeedForward(
          (project_in): Conv2d(128, 680, kernel_size=(1, 1), stride=(1, 1), bias=False)
          (dwconv): Conv2d(680, 680, kernel_size=(3, 3), stride=(1, 1), padding=(1, 1), groups=680, bias=False)
          (project_out): Conv2d(340, 128, kernel_size=(1, 1), stride=(1, 1), bias=False)
        )
      )
    )
    (refine_block): Sequential(
      (0): CRB_Layer(
        (norm1): LayerNorm2d()
        (nla): NonLocalSparseAttention(
          (conv_match): BasicBlock(
            (0): Conv2d(128, 32, kernel_size=(3, 3), stride=(1, 1), padding=(1, 1))
          )
          (conv_assembly): BasicBlock(
            (0): Conv2d(128, 128, kernel_size=(1, 1), stride=(1, 1))
          )
        )
        (conv_local): Sequential(
          (0): Conv2d(128, 128, kernel_size=(3, 3), stride=(1, 1), padding=(1, 1), groups=128)
          (1): GELU()
          (2): Conv2d(128, 128, kernel_size=(3, 3), stride=(1, 1), padding=(1, 1), groups=128)
        )
        (conv1_last): Conv2d(256, 128, kernel_size=(1, 1), stride=(1, 1))
        (ca): CALayer(
          (body): Sequential(
            (0): Conv2d(128, 8, kernel_size=(1, 1), stride=(1, 1))
            (1): GELU()
            (2): Conv2d(8, 128, kernel_size=(1, 1), stride=(1, 1))
            (3): Sigmoid()
          )
          (avg): AdaptiveAvgPool2d(output_size=1)
        )
        (norm2): LayerNorm2d()
        (gdfn): FeedForward(
          (project_in): Conv2d(128, 680, kernel_size=(1, 1), stride=(1, 1), bias=False)
          (dwconv): Conv2d(680, 680, kernel_size=(3, 3), stride=(1, 1), padding=(1, 1), groups=680, bias=False)
          (project_out): Conv2d(340, 128, kernel_size=(1, 1), stride=(1, 1), bias=False)
        )
      )
      (1): CRB_Layer(
        (norm1): LayerNorm2d()
        (nla): NonLocalSparseAttention(
          (conv_match): BasicBlock(
            (0): Conv2d(128, 32, kernel_size=(3, 3), stride=(1, 1), padding=(1, 1))
          )
          (conv_assembly): BasicBlock(
            (0): Conv2d(128, 128, kernel_size=(1, 1), stride=(1, 1))
          )
        )
        (conv_local): Sequential(
          (0): Conv2d(128, 128, kernel_size=(3, 3), stride=(1, 1), padding=(1, 1), groups=128)
          (1): GELU()
          (2): Conv2d(128, 128, kernel_size=(3, 3), stride=(1, 1), padding=(1, 1), groups=128)
        )
        (conv1_last): Conv2d(256, 128, kernel_size=(1, 1), stride=(1, 1))
        (ca): CALayer(
          (body): Sequential(
            (0): Conv2d(128, 8, kernel_size=(1, 1), stride=(1, 1))
            (1): GELU()
            (2): Conv2d(8, 128, kernel_size=(1, 1), stride=(1, 1))
            (3): Sigmoid()
          )
          (avg): AdaptiveAvgPool2d(output_size=1)
        )
        (norm2): LayerNorm2d()
        (gdfn): FeedForward(
          (project_in): Conv2d(128, 680, kernel_size=(1, 1), stride=(1, 1), bias=False)
          (dwconv): Conv2d(680, 680, kernel_size=(3, 3), stride=(1, 1), padding=(1, 1), groups=680, bias=False)
          (project_out): Conv2d(340, 128, kernel_size=(1, 1), stride=(1, 1), bias=False)
        )
      )
      (2): CRB_Layer(
        (norm1): LayerNorm2d()
        (nla): NonLocalSparseAttention(
          (conv_match): BasicBlock(
            (0): Conv2d(128, 32, kernel_size=(3, 3), stride=(1, 1), padding=(1, 1))
          )
          (conv_assembly): BasicBlock(
            (0): Conv2d(128, 128, kernel_size=(1, 1), stride=(1, 1))
          )
        )
        (conv_local): Sequential(
          (0): Conv2d(128, 128, kernel_size=(3, 3), stride=(1, 1), padding=(1, 1), groups=128)
          (1): GELU()
          (2): Conv2d(128, 128, kernel_size=(3, 3), stride=(1, 1), padding=(1, 1), groups=128)
        )
        (conv1_last): Conv2d(256, 128, kernel_size=(1, 1), stride=(1, 1))
        (ca): CALayer(
          (body): Sequential(
            (0): Conv2d(128, 8, kernel_size=(1, 1), stride=(1, 1))
            (1): GELU()
            (2): Conv2d(8, 128, kernel_size=(1, 1), stride=(1, 1))
            (3): Sigmoid()
          )
          (avg): AdaptiveAvgPool2d(output_size=1)
        )
        (norm2): LayerNorm2d()
        (gdfn): FeedForward(
          (project_in): Conv2d(128, 680, kernel_size=(1, 1), stride=(1, 1), bias=False)
          (dwconv): Conv2d(680, 680, kernel_size=(3, 3), stride=(1, 1), padding=(1, 1), groups=680, bias=False)
          (project_out): Conv2d(340, 128, kernel_size=(1, 1), stride=(1, 1), bias=False)
        )
      )
      (3): CRB_Layer(
        (norm1): LayerNorm2d()
        (nla): NonLocalSparseAttention(
          (conv_match): BasicBlock(
            (0): Conv2d(128, 32, kernel_size=(3, 3), stride=(1, 1), padding=(1, 1))
          )
          (conv_assembly): BasicBlock(
            (0): Conv2d(128, 128, kernel_size=(1, 1), stride=(1, 1))
          )
        )
        (conv_local): Sequential(
          (0): Conv2d(128, 128, kernel_size=(3, 3), stride=(1, 1), padding=(1, 1), groups=128)
          (1): GELU()
          (2): Conv2d(128, 128, kernel_size=(3, 3), stride=(1, 1), padding=(1, 1), groups=128)
        )
        (conv1_last): Conv2d(256, 128, kernel_size=(1, 1), stride=(1, 1))
        (ca): CALayer(
          (body): Sequential(
            (0): Conv2d(128, 8, kernel_size=(1, 1), stride=(1, 1))
            (1): GELU()
            (2): Conv2d(8, 128, kernel_size=(1, 1), stride=(1, 1))
            (3): Sigmoid()
          )
          (avg): AdaptiveAvgPool2d(output_size=1)
        )
        (norm2): LayerNorm2d()
        (gdfn): FeedForward(
          (project_in): Conv2d(128, 680, kernel_size=(1, 1), stride=(1, 1), bias=False)
          (dwconv): Conv2d(680, 680, kernel_size=(3, 3), stride=(1, 1), padding=(1, 1), groups=680, bias=False)
          (project_out): Conv2d(340, 128, kernel_size=(1, 1), stride=(1, 1), bias=False)
        )
      )
      (4): CRB_Layer(
        (norm1): LayerNorm2d()
        (nla): NonLocalSparseAttention(
          (conv_match): BasicBlock(
            (0): Conv2d(128, 32, kernel_size=(3, 3), stride=(1, 1), padding=(1, 1))
          )
          (conv_assembly): BasicBlock(
            (0): Conv2d(128, 128, kernel_size=(1, 1), stride=(1, 1))
          )
        )
        (conv_local): Sequential(
          (0): Conv2d(128, 128, kernel_size=(3, 3), stride=(1, 1), padding=(1, 1), groups=128)
          (1): GELU()
          (2): Conv2d(128, 128, kernel_size=(3, 3), stride=(1, 1), padding=(1, 1), groups=128)
        )
        (conv1_last): Conv2d(256, 128, kernel_size=(1, 1), stride=(1, 1))
        (ca): CALayer(
          (body): Sequential(
            (0): Conv2d(128, 8, kernel_size=(1, 1), stride=(1, 1))
            (1): GELU()
            (2): Conv2d(8, 128, kernel_size=(1, 1), stride=(1, 1))
            (3): Sigmoid()
          )
          (avg): AdaptiveAvgPool2d(output_size=1)
        )
        (norm2): LayerNorm2d()
        (gdfn): FeedForward(
          (project_in): Conv2d(128, 680, kernel_size=(1, 1), stride=(1, 1), bias=False)
          (dwconv): Conv2d(680, 680, kernel_size=(3, 3), stride=(1, 1), padding=(1, 1), groups=680, bias=False)
          (project_out): Conv2d(340, 128, kernel_size=(1, 1), stride=(1, 1), bias=False)
        )
      )
      (5): CRB_Layer(
        (norm1): LayerNorm2d()
        (nla): NonLocalSparseAttention(
          (conv_match): BasicBlock(
            (0): Conv2d(128, 32, kernel_size=(3, 3), stride=(1, 1), padding=(1, 1))
          )
          (conv_assembly): BasicBlock(
            (0): Conv2d(128, 128, kernel_size=(1, 1), stride=(1, 1))
          )
        )
        (conv_local): Sequential(
          (0): Conv2d(128, 128, kernel_size=(3, 3), stride=(1, 1), padding=(1, 1), groups=128)
          (1): GELU()
          (2): Conv2d(128, 128, kernel_size=(3, 3), stride=(1, 1), padding=(1, 1), groups=128)
        )
        (conv1_last): Conv2d(256, 128, kernel_size=(1, 1), stride=(1, 1))
        (ca): CALayer(
          (body): Sequential(
            (0): Conv2d(128, 8, kernel_size=(1, 1), stride=(1, 1))
            (1): GELU()
            (2): Conv2d(8, 128, kernel_size=(1, 1), stride=(1, 1))
            (3): Sigmoid()
          )
          (avg): AdaptiveAvgPool2d(output_size=1)
        )
        (norm2): LayerNorm2d()
        (gdfn): FeedForward(
          (project_in): Conv2d(128, 680, kernel_size=(1, 1), stride=(1, 1), bias=False)
          (dwconv): Conv2d(680, 680, kernel_size=(3, 3), stride=(1, 1), padding=(1, 1), groups=680, bias=False)
          (project_out): Conv2d(340, 128, kernel_size=(1, 1), stride=(1, 1), bias=False)
        )
      )
      (6): CRB_Layer(
        (norm1): LayerNorm2d()
        (nla): NonLocalSparseAttention(
          (conv_match): BasicBlock(
            (0): Conv2d(128, 32, kernel_size=(3, 3), stride=(1, 1), padding=(1, 1))
          )
          (conv_assembly): BasicBlock(
            (0): Conv2d(128, 128, kernel_size=(1, 1), stride=(1, 1))
          )
        )
        (conv_local): Sequential(
          (0): Conv2d(128, 128, kernel_size=(3, 3), stride=(1, 1), padding=(1, 1), groups=128)
          (1): GELU()
          (2): Conv2d(128, 128, kernel_size=(3, 3), stride=(1, 1), padding=(1, 1), groups=128)
        )
        (conv1_last): Conv2d(256, 128, kernel_size=(1, 1), stride=(1, 1))
        (ca): CALayer(
          (body): Sequential(
            (0): Conv2d(128, 8, kernel_size=(1, 1), stride=(1, 1))
            (1): GELU()
            (2): Conv2d(8, 128, kernel_size=(1, 1), stride=(1, 1))
            (3): Sigmoid()
          )
          (avg): AdaptiveAvgPool2d(output_size=1)
        )
        (norm2): LayerNorm2d()
        (gdfn): FeedForward(
          (project_in): Conv2d(128, 680, kernel_size=(1, 1), stride=(1, 1), bias=False)
          (dwconv): Conv2d(680, 680, kernel_size=(3, 3), stride=(1, 1), padding=(1, 1), groups=680, bias=False)
          (project_out): Conv2d(340, 128, kernel_size=(1, 1), stride=(1, 1), bias=False)
        )
      )
      (7): CRB_Layer(
        (norm1): LayerNorm2d()
        (nla): NonLocalSparseAttention(
          (conv_match): BasicBlock(
            (0): Conv2d(128, 32, kernel_size=(3, 3), stride=(1, 1), padding=(1, 1))
          )
          (conv_assembly): BasicBlock(
            (0): Conv2d(128, 128, kernel_size=(1, 1), stride=(1, 1))
          )
        )
        (conv_local): Sequential(
          (0): Conv2d(128, 128, kernel_size=(3, 3), stride=(1, 1), padding=(1, 1), groups=128)
          (1): GELU()
          (2): Conv2d(128, 128, kernel_size=(3, 3), stride=(1, 1), padding=(1, 1), groups=128)
        )
        (conv1_last): Conv2d(256, 128, kernel_size=(1, 1), stride=(1, 1))
        (ca): CALayer(
          (body): Sequential(
            (0): Conv2d(128, 8, kernel_size=(1, 1), stride=(1, 1))
            (1): GELU()
            (2): Conv2d(8, 128, kernel_size=(1, 1), stride=(1, 1))
            (3): Sigmoid()
          )
          (avg): AdaptiveAvgPool2d(output_size=1)
        )
        (norm2): LayerNorm2d()
        (gdfn): FeedForward(
          (project_in): Conv2d(128, 680, kernel_size=(1, 1), stride=(1, 1), bias=False)
          (dwconv): Conv2d(680, 680, kernel_size=(3, 3), stride=(1, 1), padding=(1, 1), groups=680, bias=False)
          (project_out): Conv2d(340, 128, kernel_size=(1, 1), stride=(1, 1), bias=False)
        )
      )
    )
    (fusion): Conv2d(128, 64, kernel_size=(3, 3), stride=(1, 1), padding=(1, 1))
    (upscale): Sequential(
      (0): Conv2d(64, 256, kernel_size=(3, 3), stride=(1, 1), padding=(1, 1))
      (1): PixelShuffle(upscale_factor=2)
      (2): Conv2d(64, 256, kernel_size=(3, 3), stride=(1, 1), padding=(1, 1))
      (3): PixelShuffle(upscale_factor=2)
      (4): Conv2d(64, 3, kernel_size=(3, 3), stride=(1, 1), padding=(1, 1))
    )
  )
)
22-11-17 17:42:28.640 - INFO: Model [B_Model] is created.
22-11-17 17:42:28.641 - INFO: Start training from epoch: 0, iter: 0
22-11-17 17:43:24.745 - INFO: <epoch:  0, iter:      40, lr:4.000e-04> l_pix0: 4.8150e-02 total_loss: 4.8150e-02 
22-11-17 17:44:10.201 - INFO: <epoch:  0, iter:      80, lr:4.000e-04> l_pix0: 5.7133e-02 total_loss: 5.7133e-02 
…
