…
22-11-16 12:00:54.061 - INFO: Dataset [LQGTDataset - BSDS100] is created.
22-11-16 12:00:54.061 - INFO: Number of test images in [BSDS100]: 800
22-11-16 12:00:54.062 - INFO: Dataset [LQGTDataset - urban100] is created.
22-11-16 12:00:54.063 - INFO: Number of test images in [urban100]: 800
22-11-16 12:00:54.064 - INFO: Dataset [LQGTDataset - manga109] is created.
22-11-16 12:00:54.064 - INFO: Number of test images in [manga109]: 872
22-11-16 12:00:57.363 - INFO: Network G structure: DataParallel - NLCUnet, with parameters: 18,113,619
22-11-16 12:00:57.363 - INFO: NLCUnet(
  (Restorer): Restorer(
    (head): Conv2d(3, 64, kernel_size=(3, 3), stride=(1, 1), padding=(1, 1))
    (encoder_block1): Sequential(
      (0): CRB_Layer(
        (norm1): LayerNorm2d()
        (nla): NonLocalSparseAttention(
          (conv_match): BasicBlock(
            (0): Conv2d(64, 16, kernel_size=(3, 3), stride=(1, 1), padding=(1, 1))
          )
          (conv_assembly): BasicBlock(
            (0): Conv2d(64, 64, kernel_size=(1, 1), stride=(1, 1))
          )
        )
        (conv_local): Sequential(
          (0): Conv2d(64, 64, kernel_size=(3, 3), stride=(1, 1), padding=(1, 1), groups=64)
          (1): GELU()
          (2): Conv2d(64, 64, kernel_size=(3, 3), stride=(1, 1), padding=(1, 1), groups=64)
        )
        (conv1_last): Conv2d(128, 64, kernel_size=(1, 1), stride=(1, 1))
        (ca): CALayer(
          (body): Sequential(
            (0): Conv2d(64, 4, kernel_size=(1, 1), stride=(1, 1))
            (1): GELU()
            (2): Conv2d(4, 64, kernel_size=(1, 1), stride=(1, 1))
            (3): Sigmoid()
          )
          (avg): AdaptiveAvgPool2d(output_size=1)
        )
        (norm2): LayerNorm2d()
        (gdfn): FeedForward(
          (project_in): Conv2d(64, 340, kernel_size=(1, 1), stride=(1, 1), bias=False)
          (dwconv): Conv2d(340, 340, kernel_size=(3, 3), stride=(1, 1), padding=(1, 1), groups=340, bias=False)
          (project_out): Conv2d(170, 64, kernel_size=(1, 1), stride=(1, 1), bias=False)
        )
      )
      (1): CRB_Layer(
        (norm1): LayerNorm2d()
        (nla): NonLocalSparseAttention(
          (conv_match): BasicBlock(
            (0): Conv2d(64, 16, kernel_size=(3, 3), stride=(1, 1), padding=(1, 1))
          )
          (conv_assembly): BasicBlock(
            (0): Conv2d(64, 64, kernel_size=(1, 1), stride=(1, 1))
          )
        )
        (conv_local): Sequential(
          (0): Conv2d(64, 64, kernel_size=(3, 3), stride=(1, 1), padding=(1, 1), groups=64)
          (1): GELU()
          (2): Conv2d(64, 64, kernel_size=(3, 3), stride=(1, 1), padding=(1, 1), groups=64)
        )
        (conv1_last): Conv2d(128, 64, kernel_size=(1, 1), stride=(1, 1))
        (ca): CALayer(
          (body): Sequential(
            (0): Conv2d(64, 4, kernel_size=(1, 1), stride=(1, 1))
            (1): GELU()
            (2): Conv2d(4, 64, kernel_size=(1, 1), stride=(1, 1))
            (3): Sigmoid()
          )
          (avg): AdaptiveAvgPool2d(output_size=1)
        )
        (norm2): LayerNorm2d()
        (gdfn): FeedForward(
          (project_in): Conv2d(64, 340, kernel_size=(1, 1), stride=(1, 1), bias=False)
          (dwconv): Conv2d(340, 340, kernel_size=(3, 3), stride=(1, 1), padding=(1, 1), groups=340, bias=False)
          (project_out): Conv2d(170, 64, kernel_size=(1, 1), stride=(1, 1), bias=False)
        )
      )
      (2): CRB_Layer(
        (norm1): LayerNorm2d()
        (nla): NonLocalSparseAttention(
          (conv_match): BasicBlock(
            (0): Conv2d(64, 16, kernel_size=(3, 3), stride=(1, 1), padding=(1, 1))
          )
          (conv_assembly): BasicBlock(
            (0): Conv2d(64, 64, kernel_size=(1, 1), stride=(1, 1))
          )
        )
        (conv_local): Sequential(
          (0): Conv2d(64, 64, kernel_size=(3, 3), stride=(1, 1), padding=(1, 1), groups=64)
          (1): GELU()
          (2): Conv2d(64, 64, kernel_size=(3, 3), stride=(1, 1), padding=(1, 1), groups=64)
        )
        (conv1_last): Conv2d(128, 64, kernel_size=(1, 1), stride=(1, 1))
        (ca): CALayer(
          (body): Sequential(
            (0): Conv2d(64, 4, kernel_size=(1, 1), stride=(1, 1))
            (1): GELU()
            (2): Conv2d(4, 64, kernel_size=(1, 1), stride=(1, 1))
            (3): Sigmoid()
          )
          (avg): AdaptiveAvgPool2d(output_size=1)
        )
        (norm2): LayerNorm2d()
        (gdfn): FeedForward(
          (project_in): Conv2d(64, 340, kernel_size=(1, 1), stride=(1, 1), bias=False)
          (dwconv): Conv2d(340, 340, kernel_size=(3, 3), stride=(1, 1), padding=(1, 1), groups=340, bias=False)
          (project_out): Conv2d(170, 64, kernel_size=(1, 1), stride=(1, 1), bias=False)
        )
      )
      (3): CRB_Layer(
        (norm1): LayerNorm2d()
        (nla): NonLocalSparseAttention(
          (conv_match): BasicBlock(
            (0): Conv2d(64, 16, kernel_size=(3, 3), stride=(1, 1), padding=(1, 1))
          )
          (conv_assembly): BasicBlock(
            (0): Conv2d(64, 64, kernel_size=(1, 1), stride=(1, 1))
          )
        )
        (conv_local): Sequential(
          (0): Conv2d(64, 64, kernel_size=(3, 3), stride=(1, 1), padding=(1, 1), groups=64)
          (1): GELU()
          (2): Conv2d(64, 64, kernel_size=(3, 3), stride=(1, 1), padding=(1, 1), groups=64)
        )
        (conv1_last): Conv2d(128, 64, kernel_size=(1, 1), stride=(1, 1))
        (ca): CALayer(
          (body): Sequential(
            (0): Conv2d(64, 4, kernel_size=(1, 1), stride=(1, 1))
            (1): GELU()
            (2): Conv2d(4, 64, kernel_size=(1, 1), stride=(1, 1))
            (3): Sigmoid()
          )
          (avg): AdaptiveAvgPool2d(output_size=1)
        )
        (norm2): LayerNorm2d()
        (gdfn): FeedForward(
          (project_in): Conv2d(64, 340, kernel_size=(1, 1), stride=(1, 1), bias=False)
          (dwconv): Conv2d(340, 340, kernel_size=(3, 3), stride=(1, 1), padding=(1, 1), groups=340, bias=False)
          (project_out): Conv2d(170, 64, kernel_size=(1, 1), stride=(1, 1), bias=False)
        )
      )
      (4): CRB_Layer(
        (norm1): LayerNorm2d()
        (nla): NonLocalSparseAttention(
          (conv_match): BasicBlock(
            (0): Conv2d(64, 16, kernel_size=(3, 3), stride=(1, 1), padding=(1, 1))
          )
          (conv_assembly): BasicBlock(
            (0): Conv2d(64, 64, kernel_size=(1, 1), stride=(1, 1))
          )
        )
        (conv_local): Sequential(
          (0): Conv2d(64, 64, kernel_size=(3, 3), stride=(1, 1), padding=(1, 1), groups=64)
          (1): GELU()
          (2): Conv2d(64, 64, kernel_size=(3, 3), stride=(1, 1), padding=(1, 1), groups=64)
        )
        (conv1_last): Conv2d(128, 64, kernel_size=(1, 1), stride=(1, 1))
        (ca): CALayer(
          (body): Sequential(
            (0): Conv2d(64, 4, kernel_size=(1, 1), stride=(1, 1))
            (1): GELU()
            (2): Conv2d(4, 64, kernel_size=(1, 1), stride=(1, 1))
            (3): Sigmoid()
          )
          (avg): AdaptiveAvgPool2d(output_size=1)
        )
        (norm2): LayerNorm2d()
        (gdfn): FeedForward(
          (project_in): Conv2d(64, 340, kernel_size=(1, 1), stride=(1, 1), bias=False)
          (dwconv): Conv2d(340, 340, kernel_size=(3, 3), stride=(1, 1), padding=(1, 1), groups=340, bias=False)
          (project_out): Conv2d(170, 64, kernel_size=(1, 1), stride=(1, 1), bias=False)
        )
      )
      (5): CRB_Layer(
        (norm1): LayerNorm2d()
        (nla): NonLocalSparseAttention(
          (conv_match): BasicBlock(
            (0): Conv2d(64, 16, kernel_size=(3, 3), stride=(1, 1), padding=(1, 1))
          )
          (conv_assembly): BasicBlock(
            (0): Conv2d(64, 64, kernel_size=(1, 1), stride=(1, 1))
          )
        )
        (conv_local): Sequential(
          (0): Conv2d(64, 64, kernel_size=(3, 3), stride=(1, 1), padding=(1, 1), groups=64)
          (1): GELU()
          (2): Conv2d(64, 64, kernel_size=(3, 3), stride=(1, 1), padding=(1, 1), groups=64)
        )
        (conv1_last): Conv2d(128, 64, kernel_size=(1, 1), stride=(1, 1))
        (ca): CALayer(
          (body): Sequential(
            (0): Conv2d(64, 4, kernel_size=(1, 1), stride=(1, 1))
            (1): GELU()
            (2): Conv2d(4, 64, kernel_size=(1, 1), stride=(1, 1))
            (3): Sigmoid()
          )
          (avg): AdaptiveAvgPool2d(output_size=1)
        )
        (norm2): LayerNorm2d()
        (gdfn): FeedForward(
          (project_in): Conv2d(64, 340, kernel_size=(1, 1), stride=(1, 1), bias=False)
          (dwconv): Conv2d(340, 340, kernel_size=(3, 3), stride=(1, 1), padding=(1, 1), groups=340, bias=False)
          (project_out): Conv2d(170, 64, kernel_size=(1, 1), stride=(1, 1), bias=False)
        )
      )
    )
    (down1): UnetDownsample(
      (body): Sequential(
        (0): Conv2d(64, 32, kernel_size=(3, 3), stride=(1, 1), padding=(1, 1), bias=False)
        (1): PixelUnshuffle(downscale_factor=2)
      )
    )
    (encoder_block2): Sequential(
      (0): CRB_Layer(
        (norm1): LayerNorm2d()
        (nla): NonLocalSparseAttention(
          (conv_match): BasicBlock(
            (0): Conv2d(128, 32, kernel_size=(3, 3), stride=(1, 1), padding=(1, 1))
          )
          (conv_assembly): BasicBlock(
            (0): Conv2d(128, 128, kernel_size=(1, 1), stride=(1, 1))
          )
        )
        (conv_local): Sequential(
          (0): Conv2d(128, 128, kernel_size=(3, 3), stride=(1, 1), padding=(1, 1), groups=128)
          (1): GELU()
          (2): Conv2d(128, 128, kernel_size=(3, 3), stride=(1, 1), padding=(1, 1), groups=128)
        )
        (conv1_last): Conv2d(256, 128, kernel_size=(1, 1), stride=(1, 1))
        (ca): CALayer(
          (body): Sequential(
            (0): Conv2d(128, 8, kernel_size=(1, 1), stride=(1, 1))
            (1): GELU()
            (2): Conv2d(8, 128, kernel_size=(1, 1), stride=(1, 1))
            (3): Sigmoid()
          )
          (avg): AdaptiveAvgPool2d(output_size=1)
        )
        (norm2): LayerNorm2d()
        (gdfn): FeedForward(
          (project_in): Conv2d(128, 680, kernel_size=(1, 1), stride=(1, 1), bias=False)
          (dwconv): Conv2d(680, 680, kernel_size=(3, 3), stride=(1, 1), padding=(1, 1), groups=680, bias=False)
          (project_out): Conv2d(340, 128, kernel_size=(1, 1), stride=(1, 1), bias=False)
        )
      )
      (1): CRB_Layer(
        (norm1): LayerNorm2d()
        (nla): NonLocalSparseAttention(
          (conv_match): BasicBlock(
            (0): Conv2d(128, 32, kernel_size=(3, 3), stride=(1, 1), padding=(1, 1))
          )
          (conv_assembly): BasicBlock(
            (0): Conv2d(128, 128, kernel_size=(1, 1), stride=(1, 1))
          )
        )
        (conv_local): Sequential(
          (0): Conv2d(128, 128, kernel_size=(3, 3), stride=(1, 1), padding=(1, 1), groups=128)
          (1): GELU()
          (2): Conv2d(128, 128, kernel_size=(3, 3), stride=(1, 1), padding=(1, 1), groups=128)
        )
        (conv1_last): Conv2d(256, 128, kernel_size=(1, 1), stride=(1, 1))
        (ca): CALayer(
          (body): Sequential(
            (0): Conv2d(128, 8, kernel_size=(1, 1), stride=(1, 1))
            (1): GELU()
            (2): Conv2d(8, 128, kernel_size=(1, 1), stride=(1, 1))
            (3): Sigmoid()
          )
          (avg): AdaptiveAvgPool2d(output_size=1)
        )
        (norm2): LayerNorm2d()
        (gdfn): FeedForward(
          (project_in): Conv2d(128, 680, kernel_size=(1, 1), stride=(1, 1), bias=False)
          (dwconv): Conv2d(680, 680, kernel_size=(3, 3), stride=(1, 1), padding=(1, 1), groups=680, bias=False)
          (project_out): Conv2d(340, 128, kernel_size=(1, 1), stride=(1, 1), bias=False)
        )
      )
      (2): CRB_Layer(
        (norm1): LayerNorm2d()
        (nla): NonLocalSparseAttention(
          (conv_match): BasicBlock(
            (0): Conv2d(128, 32, kernel_size=(3, 3), stride=(1, 1), padding=(1, 1))
          )
          (conv_assembly): BasicBlock(
            (0): Conv2d(128, 128, kernel_size=(1, 1), stride=(1, 1))
          )
        )
        (conv_local): Sequential(
          (0): Conv2d(128, 128, kernel_size=(3, 3), stride=(1, 1), padding=(1, 1), groups=128)
          (1): GELU()
          (2): Conv2d(128, 128, kernel_size=(3, 3), stride=(1, 1), padding=(1, 1), groups=128)
        )
        (conv1_last): Conv2d(256, 128, kernel_size=(1, 1), stride=(1, 1))
        (ca): CALayer(
          (body): Sequential(
            (0): Conv2d(128, 8, kernel_size=(1, 1), stride=(1, 1))
            (1): GELU()
            (2): Conv2d(8, 128, kernel_size=(1, 1), stride=(1, 1))
            (3): Sigmoid()
          )
          (avg): AdaptiveAvgPool2d(output_size=1)
        )
        (norm2): LayerNorm2d()
        (gdfn): FeedForward(
          (project_in): Conv2d(128, 680, kernel_size=(1, 1), stride=(1, 1), bias=False)
          (dwconv): Conv2d(680, 680, kernel_size=(3, 3), stride=(1, 1), padding=(1, 1), groups=680, bias=False)
          (project_out): Conv2d(340, 128, kernel_size=(1, 1), stride=(1, 1), bias=False)
        )
      )
      (3): CRB_Layer(
        (norm1): LayerNorm2d()
        (nla): NonLocalSparseAttention(
          (conv_match): BasicBlock(
            (0): Conv2d(128, 32, kernel_size=(3, 3), stride=(1, 1), padding=(1, 1))
          )
          (conv_assembly): BasicBlock(
            (0): Conv2d(128, 128, kernel_size=(1, 1), stride=(1, 1))
          )
        )
        (conv_local): Sequential(
          (0): Conv2d(128, 128, kernel_size=(3, 3), stride=(1, 1), padding=(1, 1), groups=128)
          (1): GELU()
          (2): Conv2d(128, 128, kernel_size=(3, 3), stride=(1, 1), padding=(1, 1), groups=128)
        )
        (conv1_last): Conv2d(256, 128, kernel_size=(1, 1), stride=(1, 1))
        (ca): CALayer(
          (body): Sequential(
            (0): Conv2d(128, 8, kernel_size=(1, 1), stride=(1, 1))
            (1): GELU()
            (2): Conv2d(8, 128, kernel_size=(1, 1), stride=(1, 1))
            (3): Sigmoid()
          )
          (avg): AdaptiveAvgPool2d(output_size=1)
        )
        (norm2): LayerNorm2d()
        (gdfn): FeedForward(
          (project_in): Conv2d(128, 680, kernel_size=(1, 1), stride=(1, 1), bias=False)
          (dwconv): Conv2d(680, 680, kernel_size=(3, 3), stride=(1, 1), padding=(1, 1), groups=680, bias=False)
          (project_out): Conv2d(340, 128, kernel_size=(1, 1), stride=(1, 1), bias=False)
        )
      )
      (4): CRB_Layer(
        (norm1): LayerNorm2d()
        (nla): NonLocalSparseAttention(
          (conv_match): BasicBlock(
            (0): Conv2d(128, 32, kernel_size=(3, 3), stride=(1, 1), padding=(1, 1))
          )
          (conv_assembly): BasicBlock(
            (0): Conv2d(128, 128, kernel_size=(1, 1), stride=(1, 1))
          )
        )
        (conv_local): Sequential(
          (0): Conv2d(128, 128, kernel_size=(3, 3), stride=(1, 1), padding=(1, 1), groups=128)
          (1): GELU()
          (2): Conv2d(128, 128, kernel_size=(3, 3), stride=(1, 1), padding=(1, 1), groups=128)
        )
        (conv1_last): Conv2d(256, 128, kernel_size=(1, 1), stride=(1, 1))
        (ca): CALayer(
          (body): Sequential(
            (0): Conv2d(128, 8, kernel_size=(1, 1), stride=(1, 1))
            (1): GELU()
            (2): Conv2d(8, 128, kernel_size=(1, 1), stride=(1, 1))
            (3): Sigmoid()
          )
          (avg): AdaptiveAvgPool2d(output_size=1)
        )
        (norm2): LayerNorm2d()
        (gdfn): FeedForward(
          (project_in): Conv2d(128, 680, kernel_size=(1, 1), stride=(1, 1), bias=False)
          (dwconv): Conv2d(680, 680, kernel_size=(3, 3), stride=(1, 1), padding=(1, 1), groups=680, bias=False)
          (project_out): Conv2d(340, 128, kernel_size=(1, 1), stride=(1, 1), bias=False)
        )
      )
      (5): CRB_Layer(
        (norm1): LayerNorm2d()
        (nla): NonLocalSparseAttention(
          (conv_match): BasicBlock(
            (0): Conv2d(128, 32, kernel_size=(3, 3), stride=(1, 1), padding=(1, 1))
          )
          (conv_assembly): BasicBlock(
            (0): Conv2d(128, 128, kernel_size=(1, 1), stride=(1, 1))
          )
        )
        (conv_local): Sequential(
          (0): Conv2d(128, 128, kernel_size=(3, 3), stride=(1, 1), padding=(1, 1), groups=128)
          (1): GELU()
          (2): Conv2d(128, 128, kernel_size=(3, 3), stride=(1, 1), padding=(1, 1), groups=128)
        )
        (conv1_last): Conv2d(256, 128, kernel_size=(1, 1), stride=(1, 1))
        (ca): CALayer(
          (body): Sequential(
            (0): Conv2d(128, 8, kernel_size=(1, 1), stride=(1, 1))
            (1): GELU()
            (2): Conv2d(8, 128, kernel_size=(1, 1), stride=(1, 1))
            (3): Sigmoid()
          )
          (avg): AdaptiveAvgPool2d(output_size=1)
        )
        (norm2): LayerNorm2d()
        (gdfn): FeedForward(
          (project_in): Conv2d(128, 680, kernel_size=(1, 1), stride=(1, 1), bias=False)
          (dwconv): Conv2d(680, 680, kernel_size=(3, 3), stride=(1, 1), padding=(1, 1), groups=680, bias=False)
          (project_out): Conv2d(340, 128, kernel_size=(1, 1), stride=(1, 1), bias=False)
        )
      )
      (6): CRB_Layer(
        (norm1): LayerNorm2d()
        (nla): NonLocalSparseAttention(
          (conv_match): BasicBlock(
            (0): Conv2d(128, 32, kernel_size=(3, 3), stride=(1, 1), padding=(1, 1))
          )
          (conv_assembly): BasicBlock(
            (0): Conv2d(128, 128, kernel_size=(1, 1), stride=(1, 1))
          )
        )
        (conv_local): Sequential(
          (0): Conv2d(128, 128, kernel_size=(3, 3), stride=(1, 1), padding=(1, 1), groups=128)
          (1): GELU()
          (2): Conv2d(128, 128, kernel_size=(3, 3), stride=(1, 1), padding=(1, 1), groups=128)
        )
        (conv1_last): Conv2d(256, 128, kernel_size=(1, 1), stride=(1, 1))
        (ca): CALayer(
          (body): Sequential(
            (0): Conv2d(128, 8, kernel_size=(1, 1), stride=(1, 1))
            (1): GELU()
            (2): Conv2d(8, 128, kernel_size=(1, 1), stride=(1, 1))
            (3): Sigmoid()
          )
          (avg): AdaptiveAvgPool2d(output_size=1)
        )
        (norm2): LayerNorm2d()
        (gdfn): FeedForward(
          (project_in): Conv2d(128, 680, kernel_size=(1, 1), stride=(1, 1), bias=False)
          (dwconv): Conv2d(680, 680, kernel_size=(3, 3), stride=(1, 1), padding=(1, 1), groups=680, bias=False)
          (project_out): Conv2d(340, 128, kernel_size=(1, 1), stride=(1, 1), bias=False)
        )
      )
      (7): CRB_Layer(
        (norm1): LayerNorm2d()
        (nla): NonLocalSparseAttention(
          (conv_match): BasicBlock(
            (0): Conv2d(128, 32, kernel_size=(3, 3), stride=(1, 1), padding=(1, 1))
          )
          (conv_assembly): BasicBlock(
            (0): Conv2d(128, 128, kernel_size=(1, 1), stride=(1, 1))
          )
        )
        (conv_local): Sequential(
          (0): Conv2d(128, 128, kernel_size=(3, 3), stride=(1, 1), padding=(1, 1), groups=128)
          (1): GELU()
          (2): Conv2d(128, 128, kernel_size=(3, 3), stride=(1, 1), padding=(1, 1), groups=128)
        )
        (conv1_last): Conv2d(256, 128, kernel_size=(1, 1), stride=(1, 1))
        (ca): CALayer(
          (body): Sequential(
            (0): Conv2d(128, 8, kernel_size=(1, 1), stride=(1, 1))
            (1): GELU()
            (2): Conv2d(8, 128, kernel_size=(1, 1), stride=(1, 1))
            (3): Sigmoid()
          )
          (avg): AdaptiveAvgPool2d(output_size=1)
        )
        (norm2): LayerNorm2d()
        (gdfn): FeedForward(
          (project_in): Conv2d(128, 680, kernel_size=(1, 1), stride=(1, 1), bias=False)
          (dwconv): Conv2d(680, 680, kernel_size=(3, 3), stride=(1, 1), padding=(1, 1), groups=680, bias=False)
          (project_out): Conv2d(340, 128, kernel_size=(1, 1), stride=(1, 1), bias=False)
        )
      )
    )
    (down2): UnetDownsample(
      (body): Sequential(
        (0): Conv2d(128, 64, kernel_size=(3, 3), stride=(1, 1), padding=(1, 1), bias=False)
        (1): PixelUnshuffle(downscale_factor=2)
      )
    )
    (latent_block): Sequential(
      (0): CRB_Layer(
        (norm1): LayerNorm2d()
        (nla): NonLocalSparseAttention(
          (conv_match): BasicBlock(
            (0): Conv2d(256, 64, kernel_size=(3, 3), stride=(1, 1), padding=(1, 1))
          )
          (conv_assembly): BasicBlock(
            (0): Conv2d(256, 256, kernel_size=(1, 1), stride=(1, 1))
          )
        )
        (conv_local): Sequential(
          (0): Conv2d(256, 256, kernel_size=(3, 3), stride=(1, 1), padding=(1, 1), groups=256)
          (1): GELU()
          (2): Conv2d(256, 256, kernel_size=(3, 3), stride=(1, 1), padding=(1, 1), groups=256)
        )
        (conv1_last): Conv2d(512, 256, kernel_size=(1, 1), stride=(1, 1))
        (ca): CALayer(
          (body): Sequential(
            (0): Conv2d(256, 16, kernel_size=(1, 1), stride=(1, 1))
            (1): GELU()
            (2): Conv2d(16, 256, kernel_size=(1, 1), stride=(1, 1))
            (3): Sigmoid()
          )
          (avg): AdaptiveAvgPool2d(output_size=1)
        )
        (norm2): LayerNorm2d()
        (gdfn): FeedForward(
          (project_in): Conv2d(256, 1360, kernel_size=(1, 1), stride=(1, 1), bias=False)
          (dwconv): Conv2d(1360, 1360, kernel_size=(3, 3), stride=(1, 1), padding=(1, 1), groups=1360, bias=False)
          (project_out): Conv2d(680, 256, kernel_size=(1, 1), stride=(1, 1), bias=False)
        )
      )
      (1): CRB_Layer(
        (norm1): LayerNorm2d()
        (nla): NonLocalSparseAttention(
          (conv_match): BasicBlock(
            (0): Conv2d(256, 64, kernel_size=(3, 3), stride=(1, 1), padding=(1, 1))
          )
          (conv_assembly): BasicBlock(
            (0): Conv2d(256, 256, kernel_size=(1, 1), stride=(1, 1))
          )
        )
        (conv_local): Sequential(
          (0): Conv2d(256, 256, kernel_size=(3, 3), stride=(1, 1), padding=(1, 1), groups=256)
          (1): GELU()
          (2): Conv2d(256, 256, kernel_size=(3, 3), stride=(1, 1), padding=(1, 1), groups=256)
        )
        (conv1_last): Conv2d(512, 256, kernel_size=(1, 1), stride=(1, 1))
        (ca): CALayer(
          (body): Sequential(
            (0): Conv2d(256, 16, kernel_size=(1, 1), stride=(1, 1))
            (1): GELU()
            (2): Conv2d(16, 256, kernel_size=(1, 1), stride=(1, 1))
            (3): Sigmoid()
          )
          (avg): AdaptiveAvgPool2d(output_size=1)
        )
        (norm2): LayerNorm2d()
        (gdfn): FeedForward(
          (project_in): Conv2d(256, 1360, kernel_size=(1, 1), stride=(1, 1), bias=False)
          (dwconv): Conv2d(1360, 1360, kernel_size=(3, 3), stride=(1, 1), padding=(1, 1), groups=1360, bias=False)
          (project_out): Conv2d(680, 256, kernel_size=(1, 1), stride=(1, 1), bias=False)
        )
      )
      (2): CRB_Layer(
        (norm1): LayerNorm2d()
        (nla): NonLocalSparseAttention(
          (conv_match): BasicBlock(
            (0): Conv2d(256, 64, kernel_size=(3, 3), stride=(1, 1), padding=(1, 1))
          )
          (conv_assembly): BasicBlock(
            (0): Conv2d(256, 256, kernel_size=(1, 1), stride=(1, 1))
          )
        )
        (conv_local): Sequential(
          (0): Conv2d(256, 256, kernel_size=(3, 3), stride=(1, 1), padding=(1, 1), groups=256)
          (1): GELU()
          (2): Conv2d(256, 256, kernel_size=(3, 3), stride=(1, 1), padding=(1, 1), groups=256)
        )
        (conv1_last): Conv2d(512, 256, kernel_size=(1, 1), stride=(1, 1))
        (ca): CALayer(
          (body): Sequential(
            (0): Conv2d(256, 16, kernel_size=(1, 1), stride=(1, 1))
            (1): GELU()
            (2): Conv2d(16, 256, kernel_size=(1, 1), stride=(1, 1))
            (3): Sigmoid()
          )
          (avg): AdaptiveAvgPool2d(output_size=1)
        )
        (norm2): LayerNorm2d()
        (gdfn): FeedForward(
          (project_in): Conv2d(256, 1360, kernel_size=(1, 1), stride=(1, 1), bias=False)
          (dwconv): Conv2d(1360, 1360, kernel_size=(3, 3), stride=(1, 1), padding=(1, 1), groups=1360, bias=False)
          (project_out): Conv2d(680, 256, kernel_size=(1, 1), stride=(1, 1), bias=False)
        )
      )
      (3): CRB_Layer(
        (norm1): LayerNorm2d()
        (nla): NonLocalSparseAttention(
          (conv_match): BasicBlock(
            (0): Conv2d(256, 64, kernel_size=(3, 3), stride=(1, 1), padding=(1, 1))
          )
          (conv_assembly): BasicBlock(
            (0): Conv2d(256, 256, kernel_size=(1, 1), stride=(1, 1))
          )
        )
        (conv_local): Sequential(
          (0): Conv2d(256, 256, kernel_size=(3, 3), stride=(1, 1), padding=(1, 1), groups=256)
          (1): GELU()
          (2): Conv2d(256, 256, kernel_size=(3, 3), stride=(1, 1), padding=(1, 1), groups=256)
        )
        (conv1_last): Conv2d(512, 256, kernel_size=(1, 1), stride=(1, 1))
        (ca): CALayer(
          (body): Sequential(
            (0): Conv2d(256, 16, kernel_size=(1, 1), stride=(1, 1))
            (1): GELU()
            (2): Conv2d(16, 256, kernel_size=(1, 1), stride=(1, 1))
            (3): Sigmoid()
          )
          (avg): AdaptiveAvgPool2d(output_size=1)
        )
        (norm2): LayerNorm2d()
        (gdfn): FeedForward(
          (project_in): Conv2d(256, 1360, kernel_size=(1, 1), stride=(1, 1), bias=False)
          (dwconv): Conv2d(1360, 1360, kernel_size=(3, 3), stride=(1, 1), padding=(1, 1), groups=1360, bias=False)
          (project_out): Conv2d(680, 256, kernel_size=(1, 1), stride=(1, 1), bias=False)
        )
      )
      (4): CRB_Layer(
        (norm1): LayerNorm2d()
        (nla): NonLocalSparseAttention(
          (conv_match): BasicBlock(
            (0): Conv2d(256, 64, kernel_size=(3, 3), stride=(1, 1), padding=(1, 1))
          )
          (conv_assembly): BasicBlock(
            (0): Conv2d(256, 256, kernel_size=(1, 1), stride=(1, 1))
          )
        )
        (conv_local): Sequential(
          (0): Conv2d(256, 256, kernel_size=(3, 3), stride=(1, 1), padding=(1, 1), groups=256)
          (1): GELU()
          (2): Conv2d(256, 256, kernel_size=(3, 3), stride=(1, 1), padding=(1, 1), groups=256)
        )
        (conv1_last): Conv2d(512, 256, kernel_size=(1, 1), stride=(1, 1))
        (ca): CALayer(
          (body): Sequential(
            (0): Conv2d(256, 16, kernel_size=(1, 1), stride=(1, 1))
            (1): GELU()
            (2): Conv2d(16, 256, kernel_size=(1, 1), stride=(1, 1))
            (3): Sigmoid()
          )
          (avg): AdaptiveAvgPool2d(output_size=1)
        )
        (norm2): LayerNorm2d()
        (gdfn): FeedForward(
          (project_in): Conv2d(256, 1360, kernel_size=(1, 1), stride=(1, 1), bias=False)
          (dwconv): Conv2d(1360, 1360, kernel_size=(3, 3), stride=(1, 1), padding=(1, 1), groups=1360, bias=False)
          (project_out): Conv2d(680, 256, kernel_size=(1, 1), stride=(1, 1), bias=False)
        )
      )
      (5): CRB_Layer(
        (norm1): LayerNorm2d()
        (nla): NonLocalSparseAttention(
          (conv_match): BasicBlock(
            (0): Conv2d(256, 64, kernel_size=(3, 3), stride=(1, 1), padding=(1, 1))
          )
          (conv_assembly): BasicBlock(
            (0): Conv2d(256, 256, kernel_size=(1, 1), stride=(1, 1))
          )
        )
        (conv_local): Sequential(
          (0): Conv2d(256, 256, kernel_size=(3, 3), stride=(1, 1), padding=(1, 1), groups=256)
          (1): GELU()
          (2): Conv2d(256, 256, kernel_size=(3, 3), stride=(1, 1), padding=(1, 1), groups=256)
        )
        (conv1_last): Conv2d(512, 256, kernel_size=(1, 1), stride=(1, 1))
        (ca): CALayer(
          (body): Sequential(
            (0): Conv2d(256, 16, kernel_size=(1, 1), stride=(1, 1))
            (1): GELU()
            (2): Conv2d(16, 256, kernel_size=(1, 1), stride=(1, 1))
            (3): Sigmoid()
          )
          (avg): AdaptiveAvgPool2d(output_size=1)
        )
        (norm2): LayerNorm2d()
        (gdfn): FeedForward(
          (project_in): Conv2d(256, 1360, kernel_size=(1, 1), stride=(1, 1), bias=False)
          (dwconv): Conv2d(1360, 1360, kernel_size=(3, 3), stride=(1, 1), padding=(1, 1), groups=1360, bias=False)
          (project_out): Conv2d(680, 256, kernel_size=(1, 1), stride=(1, 1), bias=False)
        )
      )
      (6): CRB_Layer(
        (norm1): LayerNorm2d()
        (nla): NonLocalSparseAttention(
          (conv_match): BasicBlock(
            (0): Conv2d(256, 64, kernel_size=(3, 3), stride=(1, 1), padding=(1, 1))
          )
          (conv_assembly): BasicBlock(
            (0): Conv2d(256, 256, kernel_size=(1, 1), stride=(1, 1))
          )
        )
        (conv_local): Sequential(
          (0): Conv2d(256, 256, kernel_size=(3, 3), stride=(1, 1), padding=(1, 1), groups=256)
          (1): GELU()
          (2): Conv2d(256, 256, kernel_size=(3, 3), stride=(1, 1), padding=(1, 1), groups=256)
        )
        (conv1_last): Conv2d(512, 256, kernel_size=(1, 1), stride=(1, 1))
        (ca): CALayer(
          (body): Sequential(
            (0): Conv2d(256, 16, kernel_size=(1, 1), stride=(1, 1))
            (1): GELU()
            (2): Conv2d(16, 256, kernel_size=(1, 1), stride=(1, 1))
            (3): Sigmoid()
          )
          (avg): AdaptiveAvgPool2d(output_size=1)
        )
        (norm2): LayerNorm2d()
        (gdfn): FeedForward(
          (project_in): Conv2d(256, 1360, kernel_size=(1, 1), stride=(1, 1), bias=False)
          (dwconv): Conv2d(1360, 1360, kernel_size=(3, 3), stride=(1, 1), padding=(1, 1), groups=1360, bias=False)
          (project_out): Conv2d(680, 256, kernel_size=(1, 1), stride=(1, 1), bias=False)
        )
      )
      (7): CRB_Layer(
        (norm1): LayerNorm2d()
        (nla): NonLocalSparseAttention(
          (conv_match): BasicBlock(
            (0): Conv2d(256, 64, kernel_size=(3, 3), stride=(1, 1), padding=(1, 1))
          )
          (conv_assembly): BasicBlock(
            (0): Conv2d(256, 256, kernel_size=(1, 1), stride=(1, 1))
          )
        )
        (conv_local): Sequential(
          (0): Conv2d(256, 256, kernel_size=(3, 3), stride=(1, 1), padding=(1, 1), groups=256)
          (1): GELU()
          (2): Conv2d(256, 256, kernel_size=(3, 3), stride=(1, 1), padding=(1, 1), groups=256)
        )
        (conv1_last): Conv2d(512, 256, kernel_size=(1, 1), stride=(1, 1))
        (ca): CALayer(
          (body): Sequential(
            (0): Conv2d(256, 16, kernel_size=(1, 1), stride=(1, 1))
            (1): GELU()
            (2): Conv2d(16, 256, kernel_size=(1, 1), stride=(1, 1))
            (3): Sigmoid()
          )
          (avg): AdaptiveAvgPool2d(output_size=1)
        )
        (norm2): LayerNorm2d()
        (gdfn): FeedForward(
          (project_in): Conv2d(256, 1360, kernel_size=(1, 1), stride=(1, 1), bias=False)
          (dwconv): Conv2d(1360, 1360, kernel_size=(3, 3), stride=(1, 1), padding=(1, 1), groups=1360, bias=False)
          (project_out): Conv2d(680, 256, kernel_size=(1, 1), stride=(1, 1), bias=False)
        )
      )
      (8): CRB_Layer(
        (norm1): LayerNorm2d()
        (nla): NonLocalSparseAttention(
          (conv_match): BasicBlock(
            (0): Conv2d(256, 64, kernel_size=(3, 3), stride=(1, 1), padding=(1, 1))
          )
          (conv_assembly): BasicBlock(
            (0): Conv2d(256, 256, kernel_size=(1, 1), stride=(1, 1))
          )
        )
        (conv_local): Sequential(
          (0): Conv2d(256, 256, kernel_size=(3, 3), stride=(1, 1), padding=(1, 1), groups=256)
          (1): GELU()
          (2): Conv2d(256, 256, kernel_size=(3, 3), stride=(1, 1), padding=(1, 1), groups=256)
        )
        (conv1_last): Conv2d(512, 256, kernel_size=(1, 1), stride=(1, 1))
        (ca): CALayer(
          (body): Sequential(
            (0): Conv2d(256, 16, kernel_size=(1, 1), stride=(1, 1))
            (1): GELU()
            (2): Conv2d(16, 256, kernel_size=(1, 1), stride=(1, 1))
            (3): Sigmoid()
          )
          (avg): AdaptiveAvgPool2d(output_size=1)
        )
        (norm2): LayerNorm2d()
        (gdfn): FeedForward(
          (project_in): Conv2d(256, 1360, kernel_size=(1, 1), stride=(1, 1), bias=False)
          (dwconv): Conv2d(1360, 1360, kernel_size=(3, 3), stride=(1, 1), padding=(1, 1), groups=1360, bias=False)
          (project_out): Conv2d(680, 256, kernel_size=(1, 1), stride=(1, 1), bias=False)
        )
      )
      (9): CRB_Layer(
        (norm1): LayerNorm2d()
        (nla): NonLocalSparseAttention(
          (conv_match): BasicBlock(
            (0): Conv2d(256, 64, kernel_size=(3, 3), stride=(1, 1), padding=(1, 1))
          )
          (conv_assembly): BasicBlock(
            (0): Conv2d(256, 256, kernel_size=(1, 1), stride=(1, 1))
          )
        )
        (conv_local): Sequential(
          (0): Conv2d(256, 256, kernel_size=(3, 3), stride=(1, 1), padding=(1, 1), groups=256)
          (1): GELU()
          (2): Conv2d(256, 256, kernel_size=(3, 3), stride=(1, 1), padding=(1, 1), groups=256)
        )
        (conv1_last): Conv2d(512, 256, kernel_size=(1, 1), stride=(1, 1))
        (ca): CALayer(
          (body): Sequential(
            (0): Conv2d(256, 16, kernel_size=(1, 1), stride=(1, 1))
            (1): GELU()
            (2): Conv2d(16, 256, kernel_size=(1, 1), stride=(1, 1))
            (3): Sigmoid()
          )
          (avg): AdaptiveAvgPool2d(output_size=1)
        )
        (norm2): LayerNorm2d()
        (gdfn): FeedForward(
          (project_in): Conv2d(256, 1360, kernel_size=(1, 1), stride=(1, 1), bias=False)
          (dwconv): Conv2d(1360, 1360, kernel_size=(3, 3), stride=(1, 1), padding=(1, 1), groups=1360, bias=False)
          (project_out): Conv2d(680, 256, kernel_size=(1, 1), stride=(1, 1), bias=False)
        )
      )
    )
    (up1): UnetUpsample(
      (body): Sequential(
        (0): Conv2d(256, 512, kernel_size=(3, 3), stride=(1, 1), padding=(1, 1), bias=False)
        (1): PixelShuffle(upscale_factor=2)
      )
    )
    (conv1x1_1): Conv2d(256, 128, kernel_size=(1, 1), stride=(1, 1))
    (decoder_block1): Sequential(
      (0): CRB_Layer(
        (norm1): LayerNorm2d()
        (nla): NonLocalSparseAttention(
          (conv_match): BasicBlock(
            (0): Conv2d(128, 32, kernel_size=(3, 3), stride=(1, 1), padding=(1, 1))
          )
          (conv_assembly): BasicBlock(
            (0): Conv2d(128, 128, kernel_size=(1, 1), stride=(1, 1))
          )
        )
        (conv_local): Sequential(
          (0): Conv2d(128, 128, kernel_size=(3, 3), stride=(1, 1), padding=(1, 1), groups=128)
          (1): GELU()
          (2): Conv2d(128, 128, kernel_size=(3, 3), stride=(1, 1), padding=(1, 1), groups=128)
        )
        (conv1_last): Conv2d(256, 128, kernel_size=(1, 1), stride=(1, 1))
        (ca): CALayer(
          (body): Sequential(
            (0): Conv2d(128, 8, kernel_size=(1, 1), stride=(1, 1))
            (1): GELU()
            (2): Conv2d(8, 128, kernel_size=(1, 1), stride=(1, 1))
            (3): Sigmoid()
          )
          (avg): AdaptiveAvgPool2d(output_size=1)
        )
        (norm2): LayerNorm2d()
        (gdfn): FeedForward(
          (project_in): Conv2d(128, 680, kernel_size=(1, 1), stride=(1, 1), bias=False)
          (dwconv): Conv2d(680, 680, kernel_size=(3, 3), stride=(1, 1), padding=(1, 1), groups=680, bias=False)
          (project_out): Conv2d(340, 128, kernel_size=(1, 1), stride=(1, 1), bias=False)
        )
      )
      (1): CRB_Layer(
        (norm1): LayerNorm2d()
        (nla): NonLocalSparseAttention(
          (conv_match): BasicBlock(
            (0): Conv2d(128, 32, kernel_size=(3, 3), stride=(1, 1), padding=(1, 1))
          )
          (conv_assembly): BasicBlock(
            (0): Conv2d(128, 128, kernel_size=(1, 1), stride=(1, 1))
          )
        )
        (conv_local): Sequential(
          (0): Conv2d(128, 128, kernel_size=(3, 3), stride=(1, 1), padding=(1, 1), groups=128)
          (1): GELU()
          (2): Conv2d(128, 128, kernel_size=(3, 3), stride=(1, 1), padding=(1, 1), groups=128)
        )
        (conv1_last): Conv2d(256, 128, kernel_size=(1, 1), stride=(1, 1))
        (ca): CALayer(
          (body): Sequential(
            (0): Conv2d(128, 8, kernel_size=(1, 1), stride=(1, 1))
            (1): GELU()
            (2): Conv2d(8, 128, kernel_size=(1, 1), stride=(1, 1))
            (3): Sigmoid()
          )
          (avg): AdaptiveAvgPool2d(output_size=1)
        )
        (norm2): LayerNorm2d()
        (gdfn): FeedForward(
          (project_in): Conv2d(128, 680, kernel_size=(1, 1), stride=(1, 1), bias=False)
          (dwconv): Conv2d(680, 680, kernel_size=(3, 3), stride=(1, 1), padding=(1, 1), groups=680, bias=False)
          (project_out): Conv2d(340, 128, kernel_size=(1, 1), stride=(1, 1), bias=False)
        )
      )
      (2): CRB_Layer(
        (norm1): LayerNorm2d()
        (nla): NonLocalSparseAttention(
          (conv_match): BasicBlock(
            (0): Conv2d(128, 32, kernel_size=(3, 3), stride=(1, 1), padding=(1, 1))
          )
          (conv_assembly): BasicBlock(
            (0): Conv2d(128, 128, kernel_size=(1, 1), stride=(1, 1))
          )
        )
        (conv_local): Sequential(
          (0): Conv2d(128, 128, kernel_size=(3, 3), stride=(1, 1), padding=(1, 1), groups=128)
          (1): GELU()
          (2): Conv2d(128, 128, kernel_size=(3, 3), stride=(1, 1), padding=(1, 1), groups=128)
        )
        (conv1_last): Conv2d(256, 128, kernel_size=(1, 1), stride=(1, 1))
        (ca): CALayer(
          (body): Sequential(
            (0): Conv2d(128, 8, kernel_size=(1, 1), stride=(1, 1))
            (1): GELU()
            (2): Conv2d(8, 128, kernel_size=(1, 1), stride=(1, 1))
            (3): Sigmoid()
          )
          (avg): AdaptiveAvgPool2d(output_size=1)
        )
        (norm2): LayerNorm2d()
        (gdfn): FeedForward(
          (project_in): Conv2d(128, 680, kernel_size=(1, 1), stride=(1, 1), bias=False)
          (dwconv): Conv2d(680, 680, kernel_size=(3, 3), stride=(1, 1), padding=(1, 1), groups=680, bias=False)
          (project_out): Conv2d(340, 128, kernel_size=(1, 1), stride=(1, 1), bias=False)
        )
      )
      (3): CRB_Layer(
        (norm1): LayerNorm2d()
        (nla): NonLocalSparseAttention(
          (conv_match): BasicBlock(
            (0): Conv2d(128, 32, kernel_size=(3, 3), stride=(1, 1), padding=(1, 1))
          )
          (conv_assembly): BasicBlock(
            (0): Conv2d(128, 128, kernel_size=(1, 1), stride=(1, 1))
          )
        )
        (conv_local): Sequential(
          (0): Conv2d(128, 128, kernel_size=(3, 3), stride=(1, 1), padding=(1, 1), groups=128)
          (1): GELU()
          (2): Conv2d(128, 128, kernel_size=(3, 3), stride=(1, 1), padding=(1, 1), groups=128)
        )
        (conv1_last): Conv2d(256, 128, kernel_size=(1, 1), stride=(1, 1))
        (ca): CALayer(
          (body): Sequential(
            (0): Conv2d(128, 8, kernel_size=(1, 1), stride=(1, 1))
            (1): GELU()
            (2): Conv2d(8, 128, kernel_size=(1, 1), stride=(1, 1))
            (3): Sigmoid()
          )
          (avg): AdaptiveAvgPool2d(output_size=1)
        )
        (norm2): LayerNorm2d()
        (gdfn): FeedForward(
          (project_in): Conv2d(128, 680, kernel_size=(1, 1), stride=(1, 1), bias=False)
          (dwconv): Conv2d(680, 680, kernel_size=(3, 3), stride=(1, 1), padding=(1, 1), groups=680, bias=False)
          (project_out): Conv2d(340, 128, kernel_size=(1, 1), stride=(1, 1), bias=False)
        )
      )
      (4): CRB_Layer(
        (norm1): LayerNorm2d()
        (nla): NonLocalSparseAttention(
          (conv_match): BasicBlock(
            (0): Conv2d(128, 32, kernel_size=(3, 3), stride=(1, 1), padding=(1, 1))
          )
          (conv_assembly): BasicBlock(
            (0): Conv2d(128, 128, kernel_size=(1, 1), stride=(1, 1))
          )
        )
        (conv_local): Sequential(
          (0): Conv2d(128, 128, kernel_size=(3, 3), stride=(1, 1), padding=(1, 1), groups=128)
          (1): GELU()
          (2): Conv2d(128, 128, kernel_size=(3, 3), stride=(1, 1), padding=(1, 1), groups=128)
        )
        (conv1_last): Conv2d(256, 128, kernel_size=(1, 1), stride=(1, 1))
        (ca): CALayer(
          (body): Sequential(
            (0): Conv2d(128, 8, kernel_size=(1, 1), stride=(1, 1))
            (1): GELU()
            (2): Conv2d(8, 128, kernel_size=(1, 1), stride=(1, 1))
            (3): Sigmoid()
          )
          (avg): AdaptiveAvgPool2d(output_size=1)
        )
        (norm2): LayerNorm2d()
        (gdfn): FeedForward(
          (project_in): Conv2d(128, 680, kernel_size=(1, 1), stride=(1, 1), bias=False)
          (dwconv): Conv2d(680, 680, kernel_size=(3, 3), stride=(1, 1), padding=(1, 1), groups=680, bias=False)
          (project_out): Conv2d(340, 128, kernel_size=(1, 1), stride=(1, 1), bias=False)
        )
      )
      (5): CRB_Layer(
        (norm1): LayerNorm2d()
        (nla): NonLocalSparseAttention(
          (conv_match): BasicBlock(
            (0): Conv2d(128, 32, kernel_size=(3, 3), stride=(1, 1), padding=(1, 1))
          )
          (conv_assembly): BasicBlock(
            (0): Conv2d(128, 128, kernel_size=(1, 1), stride=(1, 1))
          )
        )
        (conv_local): Sequential(
          (0): Conv2d(128, 128, kernel_size=(3, 3), stride=(1, 1), padding=(1, 1), groups=128)
          (1): GELU()
          (2): Conv2d(128, 128, kernel_size=(3, 3), stride=(1, 1), padding=(1, 1), groups=128)
        )
        (conv1_last): Conv2d(256, 128, kernel_size=(1, 1), stride=(1, 1))
        (ca): CALayer(
          (body): Sequential(
            (0): Conv2d(128, 8, kernel_size=(1, 1), stride=(1, 1))
            (1): GELU()
            (2): Conv2d(8, 128, kernel_size=(1, 1), stride=(1, 1))
            (3): Sigmoid()
          )
          (avg): AdaptiveAvgPool2d(output_size=1)
        )
        (norm2): LayerNorm2d()
        (gdfn): FeedForward(
          (project_in): Conv2d(128, 680, kernel_size=(1, 1), stride=(1, 1), bias=False)
          (dwconv): Conv2d(680, 680, kernel_size=(3, 3), stride=(1, 1), padding=(1, 1), groups=680, bias=False)
          (project_out): Conv2d(340, 128, kernel_size=(1, 1), stride=(1, 1), bias=False)
        )
      )
    )
    (up2): UnetUpsample(
      (body): Sequential(
        (0): Conv2d(128, 256, kernel_size=(3, 3), stride=(1, 1), padding=(1, 1), bias=False)
        (1): PixelShuffle(upscale_factor=2)
      )
    )
    (decoder_block2): Sequential(
      (0): CRB_Layer(
        (norm1): LayerNorm2d()
        (nla): NonLocalSparseAttention(
          (conv_match): BasicBlock(
            (0): Conv2d(128, 32, kernel_size=(3, 3), stride=(1, 1), padding=(1, 1))
          )
          (conv_assembly): BasicBlock(
            (0): Conv2d(128, 128, kernel_size=(1, 1), stride=(1, 1))
          )
        )
        (conv_local): Sequential(
          (0): Conv2d(128, 128, kernel_size=(3, 3), stride=(1, 1), padding=(1, 1), groups=128)
          (1): GELU()
          (2): Conv2d(128, 128, kernel_size=(3, 3), stride=(1, 1), padding=(1, 1), groups=128)
        )
        (conv1_last): Conv2d(256, 128, kernel_size=(1, 1), stride=(1, 1))
        (ca): CALayer(
          (body): Sequential(
            (0): Conv2d(128, 8, kernel_size=(1, 1), stride=(1, 1))
            (1): GELU()
            (2): Conv2d(8, 128, kernel_size=(1, 1), stride=(1, 1))
            (3): Sigmoid()
          )
          (avg): AdaptiveAvgPool2d(output_size=1)
        )
        (norm2): LayerNorm2d()
        (gdfn): FeedForward(
          (project_in): Conv2d(128, 680, kernel_size=(1, 1), stride=(1, 1), bias=False)
          (dwconv): Conv2d(680, 680, kernel_size=(3, 3), stride=(1, 1), padding=(1, 1), groups=680, bias=False)
          (project_out): Conv2d(340, 128, kernel_size=(1, 1), stride=(1, 1), bias=False)
        )
      )
      (1): CRB_Layer(
        (norm1): LayerNorm2d()
        (nla): NonLocalSparseAttention(
          (conv_match): BasicBlock(
            (0): Conv2d(128, 32, kernel_size=(3, 3), stride=(1, 1), padding=(1, 1))
          )
          (conv_assembly): BasicBlock(
            (0): Conv2d(128, 128, kernel_size=(1, 1), stride=(1, 1))
          )
        )
        (conv_local): Sequential(
          (0): Conv2d(128, 128, kernel_size=(3, 3), stride=(1, 1), padding=(1, 1), groups=128)
          (1): GELU()
          (2): Conv2d(128, 128, kernel_size=(3, 3), stride=(1, 1), padding=(1, 1), groups=128)
        )
        (conv1_last): Conv2d(256, 128, kernel_size=(1, 1), stride=(1, 1))
        (ca): CALayer(
          (body): Sequential(
            (0): Conv2d(128, 8, kernel_size=(1, 1), stride=(1, 1))
            (1): GELU()
            (2): Conv2d(8, 128, kernel_size=(1, 1), stride=(1, 1))
            (3): Sigmoid()
          )
          (avg): AdaptiveAvgPool2d(output_size=1)
        )
        (norm2): LayerNorm2d()
        (gdfn): FeedForward(
          (project_in): Conv2d(128, 680, kernel_size=(1, 1), stride=(1, 1), bias=False)
          (dwconv): Conv2d(680, 680, kernel_size=(3, 3), stride=(1, 1), padding=(1, 1), groups=680, bias=False)
          (project_out): Conv2d(340, 128, kernel_size=(1, 1), stride=(1, 1), bias=False)
        )
      )
      (2): CRB_Layer(
        (norm1): LayerNorm2d()
        (nla): NonLocalSparseAttention(
          (conv_match): BasicBlock(
            (0): Conv2d(128, 32, kernel_size=(3, 3), stride=(1, 1), padding=(1, 1))
          )
          (conv_assembly): BasicBlock(
            (0): Conv2d(128, 128, kernel_size=(1, 1), stride=(1, 1))
          )
        )
        (conv_local): Sequential(
          (0): Conv2d(128, 128, kernel_size=(3, 3), stride=(1, 1), padding=(1, 1), groups=128)
          (1): GELU()
          (2): Conv2d(128, 128, kernel_size=(3, 3), stride=(1, 1), padding=(1, 1), groups=128)
        )
        (conv1_last): Conv2d(256, 128, kernel_size=(1, 1), stride=(1, 1))
        (ca): CALayer(
          (body): Sequential(
            (0): Conv2d(128, 8, kernel_size=(1, 1), stride=(1, 1))
            (1): GELU()
            (2): Conv2d(8, 128, kernel_size=(1, 1), stride=(1, 1))
            (3): Sigmoid()
          )
          (avg): AdaptiveAvgPool2d(output_size=1)
        )
        (norm2): LayerNorm2d()
        (gdfn): FeedForward(
          (project_in): Conv2d(128, 680, kernel_size=(1, 1), stride=(1, 1), bias=False)
          (dwconv): Conv2d(680, 680, kernel_size=(3, 3), stride=(1, 1), padding=(1, 1), groups=680, bias=False)
          (project_out): Conv2d(340, 128, kernel_size=(1, 1), stride=(1, 1), bias=False)
        )
      )
      (3): CRB_Layer(
        (norm1): LayerNorm2d()
        (nla): NonLocalSparseAttention(
          (conv_match): BasicBlock(
            (0): Conv2d(128, 32, kernel_size=(3, 3), stride=(1, 1), padding=(1, 1))
          )
          (conv_assembly): BasicBlock(
            (0): Conv2d(128, 128, kernel_size=(1, 1), stride=(1, 1))
          )
        )
        (conv_local): Sequential(
          (0): Conv2d(128, 128, kernel_size=(3, 3), stride=(1, 1), padding=(1, 1), groups=128)
          (1): GELU()
          (2): Conv2d(128, 128, kernel_size=(3, 3), stride=(1, 1), padding=(1, 1), groups=128)
        )
        (conv1_last): Conv2d(256, 128, kernel_size=(1, 1), stride=(1, 1))
        (ca): CALayer(
          (body): Sequential(
            (0): Conv2d(128, 8, kernel_size=(1, 1), stride=(1, 1))
            (1): GELU()
            (2): Conv2d(8, 128, kernel_size=(1, 1), stride=(1, 1))
            (3): Sigmoid()
          )
          (avg): AdaptiveAvgPool2d(output_size=1)
        )
        (norm2): LayerNorm2d()
        (gdfn): FeedForward(
          (project_in): Conv2d(128, 680, kernel_size=(1, 1), stride=(1, 1), bias=False)
          (dwconv): Conv2d(680, 680, kernel_size=(3, 3), stride=(1, 1), padding=(1, 1), groups=680, bias=False)
          (project_out): Conv2d(340, 128, kernel_size=(1, 1), stride=(1, 1), bias=False)
        )
      )
      (4): CRB_Layer(
        (norm1): LayerNorm2d()
        (nla): NonLocalSparseAttention(
          (conv_match): BasicBlock(
            (0): Conv2d(128, 32, kernel_size=(3, 3), stride=(1, 1), padding=(1, 1))
          )
          (conv_assembly): BasicBlock(
            (0): Conv2d(128, 128, kernel_size=(1, 1), stride=(1, 1))
          )
        )
        (conv_local): Sequential(
          (0): Conv2d(128, 128, kernel_size=(3, 3), stride=(1, 1), padding=(1, 1), groups=128)
          (1): GELU()
          (2): Conv2d(128, 128, kernel_size=(3, 3), stride=(1, 1), padding=(1, 1), groups=128)
        )
        (conv1_last): Conv2d(256, 128, kernel_size=(1, 1), stride=(1, 1))
        (ca): CALayer(
          (body): Sequential(
            (0): Conv2d(128, 8, kernel_size=(1, 1), stride=(1, 1))
            (1): GELU()
            (2): Conv2d(8, 128, kernel_size=(1, 1), stride=(1, 1))
            (3): Sigmoid()
          )
          (avg): AdaptiveAvgPool2d(output_size=1)
        )
        (norm2): LayerNorm2d()
        (gdfn): FeedForward(
          (project_in): Conv2d(128, 680, kernel_size=(1, 1), stride=(1, 1), bias=False)
          (dwconv): Conv2d(680, 680, kernel_size=(3, 3), stride=(1, 1), padding=(1, 1), groups=680, bias=False)
          (project_out): Conv2d(340, 128, kernel_size=(1, 1), stride=(1, 1), bias=False)
        )
      )
      (5): CRB_Layer(
        (norm1): LayerNorm2d()
        (nla): NonLocalSparseAttention(
          (conv_match): BasicBlock(
            (0): Conv2d(128, 32, kernel_size=(3, 3), stride=(1, 1), padding=(1, 1))
          )
          (conv_assembly): BasicBlock(
            (0): Conv2d(128, 128, kernel_size=(1, 1), stride=(1, 1))
          )
        )
        (conv_local): Sequential(
          (0): Conv2d(128, 128, kernel_size=(3, 3), stride=(1, 1), padding=(1, 1), groups=128)
          (1): GELU()
          (2): Conv2d(128, 128, kernel_size=(3, 3), stride=(1, 1), padding=(1, 1), groups=128)
        )
        (conv1_last): Conv2d(256, 128, kernel_size=(1, 1), stride=(1, 1))
        (ca): CALayer(
          (body): Sequential(
            (0): Conv2d(128, 8, kernel_size=(1, 1), stride=(1, 1))
            (1): GELU()
            (2): Conv2d(8, 128, kernel_size=(1, 1), stride=(1, 1))
            (3): Sigmoid()
          )
          (avg): AdaptiveAvgPool2d(output_size=1)
        )
        (norm2): LayerNorm2d()
        (gdfn): FeedForward(
          (project_in): Conv2d(128, 680, kernel_size=(1, 1), stride=(1, 1), bias=False)
          (dwconv): Conv2d(680, 680, kernel_size=(3, 3), stride=(1, 1), padding=(1, 1), groups=680, bias=False)
          (project_out): Conv2d(340, 128, kernel_size=(1, 1), stride=(1, 1), bias=False)
        )
      )
      (6): CRB_Layer(
        (norm1): LayerNorm2d()
        (nla): NonLocalSparseAttention(
          (conv_match): BasicBlock(
            (0): Conv2d(128, 32, kernel_size=(3, 3), stride=(1, 1), padding=(1, 1))
          )
          (conv_assembly): BasicBlock(
            (0): Conv2d(128, 128, kernel_size=(1, 1), stride=(1, 1))
          )
        )
        (conv_local): Sequential(
          (0): Conv2d(128, 128, kernel_size=(3, 3), stride=(1, 1), padding=(1, 1), groups=128)
          (1): GELU()
          (2): Conv2d(128, 128, kernel_size=(3, 3), stride=(1, 1), padding=(1, 1), groups=128)
        )
        (conv1_last): Conv2d(256, 128, kernel_size=(1, 1), stride=(1, 1))
        (ca): CALayer(
          (body): Sequential(
            (0): Conv2d(128, 8, kernel_size=(1, 1), stride=(1, 1))
            (1): GELU()
            (2): Conv2d(8, 128, kernel_size=(1, 1), stride=(1, 1))
            (3): Sigmoid()
          )
          (avg): AdaptiveAvgPool2d(output_size=1)
        )
        (norm2): LayerNorm2d()
        (gdfn): FeedForward(
          (project_in): Conv2d(128, 680, kernel_size=(1, 1), stride=(1, 1), bias=False)
          (dwconv): Conv2d(680, 680, kernel_size=(3, 3), stride=(1, 1), padding=(1, 1), groups=680, bias=False)
          (project_out): Conv2d(340, 128, kernel_size=(1, 1), stride=(1, 1), bias=False)
        )
      )
      (7): CRB_Layer(
        (norm1): LayerNorm2d()
        (nla): NonLocalSparseAttention(
          (conv_match): BasicBlock(
            (0): Conv2d(128, 32, kernel_size=(3, 3), stride=(1, 1), padding=(1, 1))
          )
          (conv_assembly): BasicBlock(
            (0): Conv2d(128, 128, kernel_size=(1, 1), stride=(1, 1))
          )
        )
        (conv_local): Sequential(
          (0): Conv2d(128, 128, kernel_size=(3, 3), stride=(1, 1), padding=(1, 1), groups=128)
          (1): GELU()
          (2): Conv2d(128, 128, kernel_size=(3, 3), stride=(1, 1), padding=(1, 1), groups=128)
        )
        (conv1_last): Conv2d(256, 128, kernel_size=(1, 1), stride=(1, 1))
        (ca): CALayer(
          (body): Sequential(
            (0): Conv2d(128, 8, kernel_size=(1, 1), stride=(1, 1))
            (1): GELU()
            (2): Conv2d(8, 128, kernel_size=(1, 1), stride=(1, 1))
            (3): Sigmoid()
          )
          (avg): AdaptiveAvgPool2d(output_size=1)
        )
        (norm2): LayerNorm2d()
        (gdfn): FeedForward(
          (project_in): Conv2d(128, 680, kernel_size=(1, 1), stride=(1, 1), bias=False)
          (dwconv): Conv2d(680, 680, kernel_size=(3, 3), stride=(1, 1), padding=(1, 1), groups=680, bias=False)
          (project_out): Conv2d(340, 128, kernel_size=(1, 1), stride=(1, 1), bias=False)
        )
      )
    )
    (refine_block): Sequential(
      (0): CRB_Layer(
        (norm1): LayerNorm2d()
        (nla): NonLocalSparseAttention(
          (conv_match): BasicBlock(
            (0): Conv2d(128, 32, kernel_size=(3, 3), stride=(1, 1), padding=(1, 1))
          )
          (conv_assembly): BasicBlock(
            (0): Conv2d(128, 128, kernel_size=(1, 1), stride=(1, 1))
          )
        )
        (conv_local): Sequential(
          (0): Conv2d(128, 128, kernel_size=(3, 3), stride=(1, 1), padding=(1, 1), groups=128)
          (1): GELU()
          (2): Conv2d(128, 128, kernel_size=(3, 3), stride=(1, 1), padding=(1, 1), groups=128)
        )
        (conv1_last): Conv2d(256, 128, kernel_size=(1, 1), stride=(1, 1))
        (ca): CALayer(
          (body): Sequential(
            (0): Conv2d(128, 8, kernel_size=(1, 1), stride=(1, 1))
            (1): GELU()
            (2): Conv2d(8, 128, kernel_size=(1, 1), stride=(1, 1))
            (3): Sigmoid()
          )
          (avg): AdaptiveAvgPool2d(output_size=1)
        )
        (norm2): LayerNorm2d()
        (gdfn): FeedForward(
          (project_in): Conv2d(128, 680, kernel_size=(1, 1), stride=(1, 1), bias=False)
          (dwconv): Conv2d(680, 680, kernel_size=(3, 3), stride=(1, 1), padding=(1, 1), groups=680, bias=False)
          (project_out): Conv2d(340, 128, kernel_size=(1, 1), stride=(1, 1), bias=False)
        )
      )
      (1): CRB_Layer(
        (norm1): LayerNorm2d()
        (nla): NonLocalSparseAttention(
          (conv_match): BasicBlock(
            (0): Conv2d(128, 32, kernel_size=(3, 3), stride=(1, 1), padding=(1, 1))
          )
          (conv_assembly): BasicBlock(
            (0): Conv2d(128, 128, kernel_size=(1, 1), stride=(1, 1))
          )
        )
        (conv_local): Sequential(
          (0): Conv2d(128, 128, kernel_size=(3, 3), stride=(1, 1), padding=(1, 1), groups=128)
          (1): GELU()
          (2): Conv2d(128, 128, kernel_size=(3, 3), stride=(1, 1), padding=(1, 1), groups=128)
        )
        (conv1_last): Conv2d(256, 128, kernel_size=(1, 1), stride=(1, 1))
        (ca): CALayer(
          (body): Sequential(
            (0): Conv2d(128, 8, kernel_size=(1, 1), stride=(1, 1))
            (1): GELU()
            (2): Conv2d(8, 128, kernel_size=(1, 1), stride=(1, 1))
            (3): Sigmoid()
          )
          (avg): AdaptiveAvgPool2d(output_size=1)
        )
        (norm2): LayerNorm2d()
        (gdfn): FeedForward(
          (project_in): Conv2d(128, 680, kernel_size=(1, 1), stride=(1, 1), bias=False)
          (dwconv): Conv2d(680, 680, kernel_size=(3, 3), stride=(1, 1), padding=(1, 1), groups=680, bias=False)
          (project_out): Conv2d(340, 128, kernel_size=(1, 1), stride=(1, 1), bias=False)
        )
      )
      (2): CRB_Layer(
        (norm1): LayerNorm2d()
        (nla): NonLocalSparseAttention(
          (conv_match): BasicBlock(
            (0): Conv2d(128, 32, kernel_size=(3, 3), stride=(1, 1), padding=(1, 1))
          )
          (conv_assembly): BasicBlock(
            (0): Conv2d(128, 128, kernel_size=(1, 1), stride=(1, 1))
          )
        )
        (conv_local): Sequential(
          (0): Conv2d(128, 128, kernel_size=(3, 3), stride=(1, 1), padding=(1, 1), groups=128)
          (1): GELU()
          (2): Conv2d(128, 128, kernel_size=(3, 3), stride=(1, 1), padding=(1, 1), groups=128)
        )
        (conv1_last): Conv2d(256, 128, kernel_size=(1, 1), stride=(1, 1))
        (ca): CALayer(
          (body): Sequential(
            (0): Conv2d(128, 8, kernel_size=(1, 1), stride=(1, 1))
            (1): GELU()
            (2): Conv2d(8, 128, kernel_size=(1, 1), stride=(1, 1))
            (3): Sigmoid()
          )
          (avg): AdaptiveAvgPool2d(output_size=1)
        )
        (norm2): LayerNorm2d()
        (gdfn): FeedForward(
          (project_in): Conv2d(128, 680, kernel_size=(1, 1), stride=(1, 1), bias=False)
          (dwconv): Conv2d(680, 680, kernel_size=(3, 3), stride=(1, 1), padding=(1, 1), groups=680, bias=False)
          (project_out): Conv2d(340, 128, kernel_size=(1, 1), stride=(1, 1), bias=False)
        )
      )
      (3): CRB_Layer(
        (norm1): LayerNorm2d()
        (nla): NonLocalSparseAttention(
          (conv_match): BasicBlock(
            (0): Conv2d(128, 32, kernel_size=(3, 3), stride=(1, 1), padding=(1, 1))
          )
          (conv_assembly): BasicBlock(
            (0): Conv2d(128, 128, kernel_size=(1, 1), stride=(1, 1))
          )
        )
        (conv_local): Sequential(
          (0): Conv2d(128, 128, kernel_size=(3, 3), stride=(1, 1), padding=(1, 1), groups=128)
          (1): GELU()
          (2): Conv2d(128, 128, kernel_size=(3, 3), stride=(1, 1), padding=(1, 1), groups=128)
        )
        (conv1_last): Conv2d(256, 128, kernel_size=(1, 1), stride=(1, 1))
        (ca): CALayer(
          (body): Sequential(
            (0): Conv2d(128, 8, kernel_size=(1, 1), stride=(1, 1))
            (1): GELU()
            (2): Conv2d(8, 128, kernel_size=(1, 1), stride=(1, 1))
            (3): Sigmoid()
          )
          (avg): AdaptiveAvgPool2d(output_size=1)
        )
        (norm2): LayerNorm2d()
        (gdfn): FeedForward(
          (project_in): Conv2d(128, 680, kernel_size=(1, 1), stride=(1, 1), bias=False)
          (dwconv): Conv2d(680, 680, kernel_size=(3, 3), stride=(1, 1), padding=(1, 1), groups=680, bias=False)
          (project_out): Conv2d(340, 128, kernel_size=(1, 1), stride=(1, 1), bias=False)
        )
      )
      (4): CRB_Layer(
        (norm1): LayerNorm2d()
        (nla): NonLocalSparseAttention(
          (conv_match): BasicBlock(
            (0): Conv2d(128, 32, kernel_size=(3, 3), stride=(1, 1), padding=(1, 1))
          )
          (conv_assembly): BasicBlock(
            (0): Conv2d(128, 128, kernel_size=(1, 1), stride=(1, 1))
          )
        )
        (conv_local): Sequential(
          (0): Conv2d(128, 128, kernel_size=(3, 3), stride=(1, 1), padding=(1, 1), groups=128)
          (1): GELU()
          (2): Conv2d(128, 128, kernel_size=(3, 3), stride=(1, 1), padding=(1, 1), groups=128)
        )
        (conv1_last): Conv2d(256, 128, kernel_size=(1, 1), stride=(1, 1))
        (ca): CALayer(
          (body): Sequential(
            (0): Conv2d(128, 8, kernel_size=(1, 1), stride=(1, 1))
            (1): GELU()
            (2): Conv2d(8, 128, kernel_size=(1, 1), stride=(1, 1))
            (3): Sigmoid()
          )
          (avg): AdaptiveAvgPool2d(output_size=1)
        )
        (norm2): LayerNorm2d()
        (gdfn): FeedForward(
          (project_in): Conv2d(128, 680, kernel_size=(1, 1), stride=(1, 1), bias=False)
          (dwconv): Conv2d(680, 680, kernel_size=(3, 3), stride=(1, 1), padding=(1, 1), groups=680, bias=False)
          (project_out): Conv2d(340, 128, kernel_size=(1, 1), stride=(1, 1), bias=False)
        )
      )
      (5): CRB_Layer(
        (norm1): LayerNorm2d()
        (nla): NonLocalSparseAttention(
          (conv_match): BasicBlock(
            (0): Conv2d(128, 32, kernel_size=(3, 3), stride=(1, 1), padding=(1, 1))
          )
          (conv_assembly): BasicBlock(
            (0): Conv2d(128, 128, kernel_size=(1, 1), stride=(1, 1))
          )
        )
        (conv_local): Sequential(
          (0): Conv2d(128, 128, kernel_size=(3, 3), stride=(1, 1), padding=(1, 1), groups=128)
          (1): GELU()
          (2): Conv2d(128, 128, kernel_size=(3, 3), stride=(1, 1), padding=(1, 1), groups=128)
        )
        (conv1_last): Conv2d(256, 128, kernel_size=(1, 1), stride=(1, 1))
        (ca): CALayer(
          (body): Sequential(
            (0): Conv2d(128, 8, kernel_size=(1, 1), stride=(1, 1))
            (1): GELU()
            (2): Conv2d(8, 128, kernel_size=(1, 1), stride=(1, 1))
            (3): Sigmoid()
          )
          (avg): AdaptiveAvgPool2d(output_size=1)
        )
        (norm2): LayerNorm2d()
        (gdfn): FeedForward(
          (project_in): Conv2d(128, 680, kernel_size=(1, 1), stride=(1, 1), bias=False)
          (dwconv): Conv2d(680, 680, kernel_size=(3, 3), stride=(1, 1), padding=(1, 1), groups=680, bias=False)
          (project_out): Conv2d(340, 128, kernel_size=(1, 1), stride=(1, 1), bias=False)
        )
      )
      (6): CRB_Layer(
        (norm1): LayerNorm2d()
        (nla): NonLocalSparseAttention(
          (conv_match): BasicBlock(
            (0): Conv2d(128, 32, kernel_size=(3, 3), stride=(1, 1), padding=(1, 1))
          )
          (conv_assembly): BasicBlock(
            (0): Conv2d(128, 128, kernel_size=(1, 1), stride=(1, 1))
          )
        )
        (conv_local): Sequential(
          (0): Conv2d(128, 128, kernel_size=(3, 3), stride=(1, 1), padding=(1, 1), groups=128)
          (1): GELU()
          (2): Conv2d(128, 128, kernel_size=(3, 3), stride=(1, 1), padding=(1, 1), groups=128)
        )
        (conv1_last): Conv2d(256, 128, kernel_size=(1, 1), stride=(1, 1))
        (ca): CALayer(
          (body): Sequential(
            (0): Conv2d(128, 8, kernel_size=(1, 1), stride=(1, 1))
            (1): GELU()
            (2): Conv2d(8, 128, kernel_size=(1, 1), stride=(1, 1))
            (3): Sigmoid()
          )
          (avg): AdaptiveAvgPool2d(output_size=1)
        )
        (norm2): LayerNorm2d()
        (gdfn): FeedForward(
          (project_in): Conv2d(128, 680, kernel_size=(1, 1), stride=(1, 1), bias=False)
          (dwconv): Conv2d(680, 680, kernel_size=(3, 3), stride=(1, 1), padding=(1, 1), groups=680, bias=False)
          (project_out): Conv2d(340, 128, kernel_size=(1, 1), stride=(1, 1), bias=False)
        )
      )
      (7): CRB_Layer(
        (norm1): LayerNorm2d()
        (nla): NonLocalSparseAttention(
          (conv_match): BasicBlock(
            (0): Conv2d(128, 32, kernel_size=(3, 3), stride=(1, 1), padding=(1, 1))
          )
          (conv_assembly): BasicBlock(
            (0): Conv2d(128, 128, kernel_size=(1, 1), stride=(1, 1))
          )
        )
        (conv_local): Sequential(
          (0): Conv2d(128, 128, kernel_size=(3, 3), stride=(1, 1), padding=(1, 1), groups=128)
          (1): GELU()
          (2): Conv2d(128, 128, kernel_size=(3, 3), stride=(1, 1), padding=(1, 1), groups=128)
        )
        (conv1_last): Conv2d(256, 128, kernel_size=(1, 1), stride=(1, 1))
        (ca): CALayer(
          (body): Sequential(
            (0): Conv2d(128, 8, kernel_size=(1, 1), stride=(1, 1))
            (1): GELU()
            (2): Conv2d(8, 128, kernel_size=(1, 1), stride=(1, 1))
            (3): Sigmoid()
          )
          (avg): AdaptiveAvgPool2d(output_size=1)
        )
        (norm2): LayerNorm2d()
        (gdfn): FeedForward(
          (project_in): Conv2d(128, 680, kernel_size=(1, 1), stride=(1, 1), bias=False)
          (dwconv): Conv2d(680, 680, kernel_size=(3, 3), stride=(1, 1), padding=(1, 1), groups=680, bias=False)
          (project_out): Conv2d(340, 128, kernel_size=(1, 1), stride=(1, 1), bias=False)
        )
      )
    )
    (fusion): Conv2d(128, 64, kernel_size=(3, 3), stride=(1, 1), padding=(1, 1))
    (upscale): Sequential(
      (0): Conv2d(64, 256, kernel_size=(3, 3), stride=(1, 1), padding=(1, 1))
      (1): PixelShuffle(upscale_factor=2)
      (2): Conv2d(64, 256, kernel_size=(3, 3), stride=(1, 1), padding=(1, 1))
      (3): PixelShuffle(upscale_factor=2)
      (4): Conv2d(64, 3, kernel_size=(3, 3), stride=(1, 1), padding=(1, 1))
    )
  )
)
22-11-16 12:00:57.363 - INFO: Loading model for G [/share/home/104632/jiancong/NLCUnet-center-crop/experiments/NLCUnet/NLCUnetx4_setting1/models/1195000_G.pth] ...
22-11-16 12:00:57.759 - INFO: Model [B_Model] is created.
22-11-16 12:00:57.760 - INFO: 
Testing [Set5]...
22-11-16 12:00:59.178 - INFO: img:sig1.8_baby     - PSNR: 32.475031 dB; SSIM: 0.871362; PSNR_Y: 34.008597 dB; SSIM_Y: 0.896737.
…
